module {
  func.func @testType(%arg0: tensor<1x224x224x3xf32>) -> tensor<96xf32> {
    %cst = arith.constant dense<1.000000e-01> : tensor<1xf32>
    %cst_0 = arith.constant dense<1.000000e-01> : tensor<2xf32>
    %cst_1 = arith.constant dense<1.000000e-01> : tensor<3xf32>
    %cst_2 = arith.constant dense<1.000000e-01> : tensor<4xf32>
    %cst_3 = arith.constant dense<1.000000e-01> : tensor<5xf32>
    %cst_4 = arith.constant dense<1.000000e-01> : tensor<6xf32>
    %cst_5 = arith.constant dense<1.000000e-01> : tensor<7xf32>
    %cst_6 = arith.constant dense<1.000000e-01> : tensor<8xf32>
    %cst_7 = arith.constant dense<1.000000e-01> : tensor<9xf32>
    %cst_8 = arith.constant dense<1.000000e-01> : tensor<10xf32>
    %cst_9 = arith.constant dense<1.000000e-01> : tensor<11xf32>
    %cst_10 = arith.constant dense<1.000000e-01> : tensor<12xf32>
    %cst_11 = arith.constant dense<1.000000e-01> : tensor<13xf32>
    %cst_12 = arith.constant dense<1.000000e-01> : tensor<14xf32>
    %cst_13 = arith.constant dense<1.000000e-01> : tensor<15xf32>
    %cst_14 = arith.constant dense<1.000000e-01> : tensor<16xf32>
    %cst_15 = arith.constant dense<1.000000e-01> : tensor<17xf32>
    %cst_16 = arith.constant dense<1.000000e-01> : tensor<18xf32>
    %cst_17 = arith.constant dense<1.000000e-01> : tensor<19xf32>
    %cst_18 = arith.constant dense<1.000000e-01> : tensor<20xf32>
    %cst_19 = arith.constant dense<1.000000e-01> : tensor<21xf32>
    %cst_20 = arith.constant dense<1.000000e-01> : tensor<22xf32>
    %cst_21 = arith.constant dense<1.000000e-01> : tensor<23xf32>
    %cst_22 = arith.constant dense<1.000000e-01> : tensor<24xf32>
    %cst_23 = arith.constant dense<1.000000e-01> : tensor<25xf32>
    %cst_24 = arith.constant dense<1.000000e-01> : tensor<26xf32>
    %cst_25 = arith.constant dense<1.000000e-01> : tensor<27xf32>
    %cst_26 = arith.constant dense<1.000000e-01> : tensor<28xf32>
    %cst_27 = arith.constant dense<1.000000e-01> : tensor<29xf32>
    %cst_28 = arith.constant dense<1.000000e-01> : tensor<30xf32>
    %cst_29 = arith.constant dense<1.000000e-01> : tensor<31xf32>
    %cst_30 = arith.constant dense<1.000000e-01> : tensor<32xf32>
    %cst_31 = arith.constant dense<1.000000e-01> : tensor<33xf32>
    %cst_32 = arith.constant dense<1.000000e-01> : tensor<34xf32>
    %cst_33 = arith.constant dense<1.000000e-01> : tensor<35xf32>
    %cst_34 = arith.constant dense<1.000000e-01> : tensor<36xf32>
    %cst_35 = arith.constant dense<1.000000e-01> : tensor<37xf32>
    %cst_36 = arith.constant dense<1.000000e-01> : tensor<38xf32>
    %cst_37 = arith.constant dense<1.000000e-01> : tensor<39xf32>
    %cst_38 = arith.constant dense<1.000000e-01> : tensor<40xf32>
    %cst_39 = arith.constant dense<1.000000e-01> : tensor<41xf32>
    %cst_40 = arith.constant dense<1.000000e-01> : tensor<42xf32>
    %cst_41 = arith.constant dense<1.000000e-01> : tensor<43xf32>
    %cst_42 = arith.constant dense<1.000000e-01> : tensor<44xf32>
    %cst_43 = arith.constant dense<1.000000e-01> : tensor<45xf32>
    %cst_44 = arith.constant dense<1.000000e-01> : tensor<46xf32>
    %cst_45 = arith.constant dense<1.000000e-01> : tensor<47xf32>
    %cst_46 = arith.constant dense<1.000000e-01> : tensor<48xf32>
    %cst_47 = arith.constant dense<1.000000e-01> : tensor<49xf32>
    %cst_48 = arith.constant dense<1.000000e-01> : tensor<50xf32>
    %cst_49 = arith.constant dense<1.000000e-01> : tensor<51xf32>
    %cst_50 = arith.constant dense<1.000000e-01> : tensor<52xf32>
    %cst_51 = arith.constant dense<1.000000e-01> : tensor<53xf32>
    %cst_52 = arith.constant dense<1.000000e-01> : tensor<54xf32>
    %cst_53 = arith.constant dense<1.000000e-01> : tensor<55xf32>
    %cst_54 = arith.constant dense<1.000000e-01> : tensor<56xf32>
    %cst_55 = arith.constant dense<1.000000e-01> : tensor<57xf32>
    %cst_56 = arith.constant dense<1.000000e-01> : tensor<58xf32>
    %cst_57 = arith.constant dense<1.000000e-01> : tensor<59xf32>
    %cst_58 = arith.constant dense<1.000000e-01> : tensor<60xf32>
    %cst_59 = arith.constant dense<1.000000e-01> : tensor<61xf32>
    %cst_60 = arith.constant dense<1.000000e-01> : tensor<62xf32>
    %cst_61 = arith.constant dense<1.000000e-01> : tensor<63xf32>
    %cst_62 = arith.constant dense<1.000000e-01> : tensor<64xf32>
    %cst_63 = arith.constant dense<1.000000e-01> : tensor<65xf32>
    %cst_64 = arith.constant dense<1.000000e-01> : tensor<66xf32>
    %cst_65 = arith.constant dense<1.000000e-01> : tensor<67xf32>
    %cst_66 = arith.constant dense<1.000000e-01> : tensor<68xf32>
    %cst_67 = arith.constant dense<1.000000e-01> : tensor<69xf32>
    %cst_68 = arith.constant dense<1.000000e-01> : tensor<70xf32>
    %cst_69 = arith.constant dense<1.000000e-01> : tensor<71xf32>
    %cst_70 = arith.constant dense<1.000000e-01> : tensor<72xf32>
    %cst_71 = arith.constant dense<1.000000e-01> : tensor<73xf32>
    %cst_72 = arith.constant dense<1.000000e-01> : tensor<74xf32>
    %cst_73 = arith.constant dense<1.000000e-01> : tensor<75xf32>
    %cst_74 = arith.constant dense<1.000000e-01> : tensor<76xf32>
    %cst_75 = arith.constant dense<1.000000e-01> : tensor<77xf32>
    %cst_76 = arith.constant dense<1.000000e-01> : tensor<78xf32>
    %cst_77 = arith.constant dense<1.000000e-01> : tensor<79xf32>
    %cst_78 = arith.constant dense<1.000000e-01> : tensor<80xf32>
    %cst_79 = arith.constant dense<1.000000e-01> : tensor<81xf32>
    %cst_80 = arith.constant dense<1.000000e-01> : tensor<82xf32>
    %cst_81 = arith.constant dense<1.000000e-01> : tensor<83xf32>
    %cst_82 = arith.constant dense<1.000000e-01> : tensor<84xf32>
    %cst_83 = arith.constant dense<1.000000e-01> : tensor<85xf32>
    %cst_84 = arith.constant dense<1.000000e-01> : tensor<86xf32>
    %cst_85 = arith.constant dense<1.000000e-01> : tensor<87xf32>
    %cst_86 = arith.constant dense<1.000000e-01> : tensor<88xf32>
    %cst_87 = arith.constant dense<1.000000e-01> : tensor<89xf32>
    %cst_88 = arith.constant dense<1.000000e-01> : tensor<90xf32>
    %cst_89 = arith.constant dense<1.000000e-01> : tensor<91xf32>
    %cst_90 = arith.constant dense<1.000000e-01> : tensor<92xf32>
    %cst_91 = arith.constant dense<1.000000e-01> : tensor<93xf32>
    %cst_92 = arith.constant dense<1.000000e-01> : tensor<94xf32>
    %cst_93 = arith.constant dense<1.000000e-01> : tensor<95xf32>
    %cst_94 = arith.constant dense<1.000000e-01> : tensor<96xf32>
    %cst_95 = arith.constant dense<1.000000e-01> : tensor<97xf32>
    %cst_96 = arith.constant dense<1.000000e-01> : tensor<98xf32>
    %cst_97 = arith.constant dense<1.000000e-01> : tensor<99xf32>
    %cst_98 = arith.constant dense<1.000000e-01> : tensor<100xf32>
    %cst_99 = arith.constant dense<1.000000e-01> : tensor<101xf32>
    %cst_100 = arith.constant dense<1.000000e-01> : tensor<102xf32>
    return %cst_94 : tensor<96xf32>
  }
}

