{
  "dialects": {
    "func": 2555,
    "onnx": 3634,
    "zhigh": 26,
    "krnl": 129,
    "arith": 17,
    "memref": 1
  },
  "operations": {
    "func.func": 1600,
    "onnx.GlobalAveragePool": 6,
    "onnx.Return": 645,
    "onnx.Tan": 1,
    "func.return": 955,
    "onnx.Constant": 713,
    "onnx.Add": 189,
    "onnx.NoValue": 240,
    "onnx.ReduceSum": 21,
    "onnx.Cast": 40,
    "onnx.Flatten": 10,
    "onnx.Less": 16,
    "zhigh.StickForLSTM": 2,
    "onnx.Sin": 5,
    "onnx.Conv": 67,
    "onnx.Gemm": 46,
    "onnx.Loop": 9,
    "onnx.Identity": 15,
    "onnx.Yield": 29,
    "onnx.ConvTranspose": 19,
    "onnx.Unsqueeze": 18,
    "onnx.Squeeze": 19,
    "onnx.Div": 33,
    "onnx.Einsum": 23,
    "onnx.MatMul": 92,
    "krnl.define_loops": 14,
    "krnl.block": 13,
    "krnl.unroll": 4,
    "krnl.iterate": 22,
    "krnl.get_induction_var_value": 6,
    "arith.addi": 11,
    "krnl.terminate": 22,
    "onnx.Softmax": 14,
    "onnx.NonMaxSuppression": 11,
    "onnx.Mul": 59,
    "onnx.AveragePool": 38,
    "onnx.Slice": 20,
    "onnx.Custom": 13,
    "onnx.Reshape": 46,
    "onnx.DFT": 2,
    "onnx.GatherElements": 5,
    "onnx.BatchNormalizationInferenceMode": 18,
    "onnx.PRelu": 17,
    "onnx.LSTM": 36,
    "onnx.RandomNormalLike": 12,
    "onnx.SqueezeV11": 15,
    "onnx.GlobalMaxPool": 6,
    "onnx.Dim": 49,
    "onnx.Concat": 58,
    "onnx.Expand": 26,
    "onnx.Sub": 32,
    "onnx.GRU": 29,
    "onnx.ReduceMaxV13": 12,
    "onnx.ReduceMinV13": 9,
    "onnx.Exp": 8,
    "onnx.MatMulInteger": 24,
    "onnx.TopK": 6,
    "onnx.Log": 9,
    "onnx.Sigmoid": 20,
    "onnx.RNN": 19,
    "onnx.GatherND": 8,
    "onnx.Shape": 18,
    "onnx.SplitV11": 13,
    "onnx.ReduceMean": 7,
    "onnx.Where": 5,
    "onnx.MaxPoolSingleOut": 46,
    "onnx.ConvInteger": 12,
    "onnx.ReduceMeanV13": 40,
    "onnx.Sqrt": 23,
    "onnx.Min": 10,
    "onnx.Transpose": 44,
    "onnx.Split": 21,
    "onnx.Resize": 22,
    "onnx.Gather": 16,
    "onnx.OneHot": 4,
    "onnx.Pow": 12,
    "onnx.ShapeTransform": 2,
    "onnx.Reciprocal": 3,
    "onnx.Round": 2,
    "zhigh.Stick": 14,
    "onnx.Max": 12,
    "onnx.SoftmaxV11": 6,
    "onnx.If": 9,
    "onnx.Upsample": 3,
    "onnx.Sum": 11,
    "onnx.CastLike": 1,
    "onnx.ConstantOfShape": 11,
    "onnx.UnsqueezeV11": 12,
    "onnx.Range": 15,
    "krnl.entry_point": 13,
    "zhigh.StickForGRU": 1,
    "onnx.Softplus": 2,
    "onnx.ReduceSumV11": 3,
    "onnx.Equal": 3,
    "onnx.Unique": 11,
    "onnx.EntryPoint": 18,
    "onnx.Abs": 6,
    "onnx.SplitToSequence": 10,
    "onnx.DynamicQuantizeLinear": 2,
    "onnx.ScatterND": 6,
    "krnl.global": 26,
    "onnx.ReduceProd": 1,
    "onnx.Mean": 2,
    "onnx.ReduceProdV13": 2,
    "onnx.Scaler": 10,
    "onnx.DequantizeLinear": 5,
    "onnx.Acos": 1,
    "onnx.Compress": 8,
    "onnx.ReduceMax": 1,
    "onnx.UpsampleV7": 1,
    "onnx.CumSum": 10,
    "onnx.EyeLike": 2,
    "onnx.Tile": 8,
    "arith.constant": 6,
    "krnl.find_index": 2,
    "onnx.SequenceConstruct": 3,
    "onnx.Relu": 51,
    "zhigh.Unstick": 5,
    "onnx.Size": 5,
    "onnx.Hardmax": 3,
    "onnx.Neg": 3,
    "onnx.ReduceL1": 1,
    "onnx.RoiAlign": 1,
    "onnx.InstanceNormalization": 2,
    "onnx.Sign": 4,
    "onnx.Pad": 6,
    "onnx.ReduceLogSumExp": 2,
    "onnx.LeakyRelu": 4,
    "onnx.Softsign": 2,
    "onnx.Clip": 14,
    "onnx.BitwiseOr": 1,
    "onnx.Tanh": 8,
    "krnl.permute": 4,
    "onnx.Floor": 3,
    "onnx.LayerNormalization": 6,
    "onnx.And": 3,
    "onnx.ReverseSequence": 3,
    "onnx.ScatterElements": 3,
    "onnx.SpaceToDepth": 4,
    "onnx.DepthToSpace": 4,
    "onnx.Atanh": 1,
    "onnx.GroupNormalization": 2,
    "onnx.Atan": 2,
    "onnx.ReduceLogSum": 1,
    "onnx.Dropout": 3,
    "onnx.ConcatShapeTranspose": 2,
    "onnx.IsNaN": 2,
    "onnx.OptionalHasElement": 1,
    "krnl.strlen": 1,
    "onnx.IsInf": 6,
    "onnx.Optional": 6,
    "onnx.SequenceEmpty": 7,
    "onnx.Mod": 3,
    "onnx.PadV13": 1,
    "onnx.RandomNormal": 6,
    "onnx.ArgMax": 3,
    "onnx.GreaterOrEqual": 1,
    "onnx.OneHotEncoder": 2,
    "zhigh.DLF16ToF32": 2,
    "krnl.dim": 2,
    "onnx.SequenceErase": 2,
    "onnx.SequenceAt": 3,
    "onnx.HardSigmoid": 3,
    "onnx.Trilu": 2,
    "onnx.Ceil": 3,
    "zhigh.F32ToDLF16": 2,
    "onnx.QuantizeLinear": 4,
    "onnx.SequenceInsert": 8,
    "onnx.Greater": 2,
    "onnx.Xor": 1,
    "memref.dim": 1,
    "onnx.RMSLayerNormalization": 2,
    "onnx.Bernoulli": 2,
    "onnx.NonZero": 2,
    "onnx.Cosh": 2,
    "onnx.ResizeV10": 1,
    "onnx.Scan": 2,
    "onnx.Selu": 2,
    "onnx.ReduceSumSquare": 1,
    "onnx.Erf": 3,
    "onnx.Celu": 1,
    "onnx.CenterCropPad": 2,
    "onnx.Cos": 3,
    "onnx.SplitV13": 1,
    "onnx.ArgMin": 1,
    "onnx.MaxRoiPool": 1,
    "onnx.Acosh": 1,
    "onnx.MaxUnpool": 1,
    "onnx.Scatter": 1,
    "onnx.ReduceL2": 1,
    "onnx.BitwiseXor": 1,
    "onnx.Asin": 1,
    "onnx.LogSoftmax": 1,
    "onnx.LessOrEqual": 1,
    "onnx.Elu": 2,
    "onnx.PadV2": 1,
    "onnx.ResizeV11": 1,
    "onnx.ReduceMin": 1,
    "onnx.GlobalLpPool": 2,
    "onnx.Asinh": 1,
    "onnx.Or": 1,
    "onnx.ClipV6": 2,
    "onnx.Sinh": 2,
    "onnx.ResizeV13": 1,
    "onnx.QLinearMatMul": 1,
    "onnx.BitwiseAnd": 1,
    "onnx.SequenceLength": 1,
    "onnx.OptionalGetElement": 1
  },
  "type_patterns": {
    "5x5x32x32xf32*xf32": 13,
    "5x5x32x32xf32": 31,
    "10x10xf3210x10xf32": 18,
    "10x10xf32": 130,
    "3xi323xi32": 4,
    "3xi32": 19,
    "1x2x3x4xf32*xf32": 7,
    "1x2x3x4xf32": 16,
    "f32f32": 2,
    "f32": 73,
    "2x3x4xf32*xi8": 1,
    "2x3x4xf32": 21,
    "i8": 30,
    "2x?x4xf32*xf32": 2,
    "2x?x4xf32": 6,
    "?x?x5xf32?x4x5xf32*xi1": 1,
    "?x?x5xf32": 3,
    "?x4x5xf32": 23,
    "2x5x7xf322x5x7xf322x5x7xf322x5x7xf32*xf16": 1,
    "2x5x7xf32": 7,
    "?x10xf32*xf32": 48,
    "?x10xf32": 66,
    "1x2x32x64xf325x2x6x7xf32*xf32": 7,
    "1x2x32x64xf32": 13,
    "5x2x6x7xf32": 10,
    "1x?x?x5xf321x?x?x1xf32": 2,
    "1x?x?x5xf32": 4,
    "128x256xf32128x256xf32": 12,
    "128x256xf32": 16,
    "10x5xf325x10xf3210xf32*xf32": 1,
    "10x5xf32": 12,
    "5x10xf32": 28,
    "10xf32": 27,
    "i64i11xi64*xi64": 1,
    "i64": 34,
    "i1": 20,
    "1xi64": 24,
    "*xi64": 15,
    "*xi1": 11,
    "*xf32": 185,
    "1x64x36x48xf3264x1x2x2xf32*xf32": 4,
    "1x64x36x48xf32": 4,
    "64x1x2x2xf32": 4,
    "32769x10xf3232769x10xf32*xf32": 7,
    "32769x10xf32": 20,
    "3x3xf32*xf32": 2,
    "3x3xf32": 11,
    "?x?x5xf32?x4x5xf32?x4x5xi1": 1,
    "42xf32?x42x32xf32*xf32": 1,
    "42xf32": 1,
    "?x42x32xf32": 2,
    "5x5x1x32xf32*xf32": 14,
    "5x5x1x32xf32": 24,
    "?x?x768xf32?x?x768xf32?x?x768xf32": 2,
    "?x?x768xf32": 22,
    "index": 32,
    "10x20x30xf32*xf32": 3,
    "10x20x30xf32": 5,
    "1x1x4xf321x1x1xf321xi641xf321xf32?x3xi64": 1,
    "1x1x4xf32": 4,
    "1x1x1xf32": 2,
    "1xf32": 60,
    "5x5x30x32xf325x5x16x17xf32": 1,
    "5x5x30x32xf32": 11,
    "?x?x768xf321x1x1xf32?x?x768xf32": 1,
    "?x4x5xf32*xf32": 2,
    "10x10xf3210x10xf3210x10xf3210x10xf32": 2,
    "*xf32*xf32*xf32": 6,
    "1x10xf32*xf32": 1,
    "1x10xf32": 2,
    "10x10xf3210x10xf32*xf32": 29,
    "10x1x10xf3210x1x10xf32": 2,
    "10x1x10xf32": 3,
    "1x2x32x64xf325x2x6x10xf32*xf32": 4,
    "5x2x6x10xf32": 4,
    "1x8x10x12xf32i32*xf32": 2,
    "1x8x10x12xf32": 2,
    "i32": 37,
    "3x2xf322x2xi642x2xf32": 1,
    "3x2xf32": 30,
    "2x2xi64": 17,
    "10x5xf322x3x5x10xf32*xf32": 2,
    "2x3x5x10xf32": 4,
    "*xf163xi64*xf16": 1,
    "*xf16": 10,
    "3xi64": 8,
    "4xi32": 3,
    "1x64x112x112xf3264xf3264xf3264xf3264xf321x64x112x112xf32": 1,
    "1x64x112x112xf32": 2,
    "64xf32": 21,
    "3x4x5xi323x4x5xi32*xi32": 2,
    "3x4x5xi32": 4,
    "2x3x4xf32*xf32": 4,
    "5x?xf32?x10xf325x10xf32": 1,
    "5x?xf32": 2,
    "8xf32": 7,
    "*xf321x16x3xf321x16x4xf321x32xf32?xi321x1x4xf32*xf32": 1,
    "1x16x3xf32": 5,
    "1x16x4xf32": 7,
    "1x32xf32": 7,
    "?xi32": 11,
    "1x1x28x28xf32*xf32": 5,
    "1x1x28x28xf32": 7,
    "16x1x32x1x64xf32*xf32": 11,
    "16x1x32x1x64xf32": 11,
    "1x?x?x5xf321x?x1x1xf32": 2,
    "5x10xf325x10xf3210xf32*xf32": 4,
    "?xi642x?xf32": 9,
    "?xi64": 27,
    "3x2xi32": 9,
    "4x3x2xf321x9x2xf321x9x3xf32*xf32": 3,
    "4x3x2xf32": 21,
    "1x9x2xf32": 8,
    "1x9x3xf32": 7,
    "10x20x30x40xf32*xf32": 3,
    "10x20x30x40xf32": 3,
    "3x5x10x20xf3220x1xf3215x10x1xf32": 1,
    "3x5x10x20xf32": 3,
    "20x1xf32": 3,
    "10x3xf323xf323xf323xf323xf3210x3xf32": 1,
    "10x3xf32": 1,
    "3xf32": 42,
    "?x2xf64?x2xf32": 1,
    "?x2xf64": 1,
    "?x20x30xf32?x1x30xf32": 1,
    "?x20x30xf32": 2,
    "2x3xi32*xi32": 2,
    "2x3xi32": 2,
    "4x2xi32": 4,
    "3x4xf321xi64*xf32*xi64": 2,
    "3x4xf32": 9,
    "32769x10xf32*xf32": 6,
    "2x3xf64*xf64": 6,
    "2x3xf64": 11,
    "1024xi324xf32*xf32": 2,
    "1024xi32": 3,
    "4xf32": 9,
    "?x10xf32?x10xf32": 10,
    "*xf321x4x3xf321x4x4xf321x8xf32?xi321x?x4xf32*xf32": 1,
    "1x4x3xf32": 6,
    "1x4x4xf32": 8,
    "1x8xf32": 8,
    "1x?x4xf32": 10,
    "2x2xf322x2xi64*xf32": 1,
    "2x2xf32": 15,
    "?x256xi642xi64": 1,
    "?x256xi64": 13,
    "1x2x1x3xf322xf322xf322xf322xf321x2x1x3xf32": 1,
    "1x2x1x3xf32": 1,
    "2xf32": 44,
    "16x32x64xf32*xf32": 17,
    "16x32x64xf32": 23,
    "2x5x9x11xf322x5xf32": 1,
    "2x5x9x11xf32": 5,
    "10x10xf3210x10xi64": 1,
    "5x5x8x8xf32*xf32": 1,
    "5x5x8x8xf32": 2,
    "5x5x8x8xf325x5x2x2xf32": 1,
    "4xi642xi642xi64": 1,
    "4xi64": 9,
    "2xi64": 13,
    "10x10xf3210xf32*xf32": 7,
    "5x5x30x32xf32*xf32": 4,
    "1x2x32xi85x2x6xi8i8i8*xi32": 1,
    "1x2x32xi8": 1,
    "5x2x6xi8": 1,
    "1x384x768xf32768xf32768xf321x384x768xf32": 10,
    "1x384x768xf32": 10,
    "768xf32": 24,
    "4x3xf321x12x2xf321x12x3xf32*xf32": 1,
    "4x3xf32": 1,
    "1x12x2xf32": 11,
    "1x12x3xf32": 16,
    "f32i1": 1,
    "1x1x4x4xf321x1x2x2xf32": 1,
    "1x1x4x4xf32": 2,
    "7x2x3xf321x4x3xf321x4x4xf321x8xf321x2x4xf32*xf32": 2,
    "7x2x3xf32": 13,
    "1x2x4xf32": 14,
    "10x11x12x13xf3210x11x12x13xf32": 7,
    "10x11x12x13xf32": 10,
    "?x20xf32?x30xf322xi6450x?xf32": 2,
    "?x20xf32": 3,
    "?x30xf32": 7,
    "16x?x64xf32*xf32": 4,
    "16x?x64xf32": 4,
    "3x4x5x6xf32*xf32": 2,
    "3x4x5x6xf32": 2,
    "3x3xf321x2xi64*xf32": 3,
    "1x2xi64": 3,
    "?x5x5x1xf32?x5x5x2xf32?x5x5x3xf32": 1,
    "?x5x5x1xf32": 1,
    "?x5x5x2xf32": 1,
    "?x2xi64i642xf32*xf32": 1,
    "?x2xi64": 3,
    "?x2x2xi64?x2xi64": 1,
    "?x2x2xi64": 1,
    "?xf321xf32?xf32": 1,
    "?xf32": 14,
    "128x128xf32128x128xf32": 1,
    "128x128xf32": 5,
    "10x10xf32*xf32": 16,
    "15xf32*xf32": 2,
    "15xf32": 2,
    "3x2xf322x2x2xf32": 4,
    "1x1x3x3xf321x1x2x2xf321x1x5x5xf32": 1,
    "1x1x3x3xf32": 10,
    "1x1x2x2xf32": 6,
    "5x4x2xf321x12x2xf321x12x3xf325x1x3xf325x1x3xf32": 1,
    "5x4x2xf32": 6,
    "5x1x3xf32": 2,
    "3x4x5xf32?x4x5xf32*xi1": 1,
    "3x4x5xf32": 38,
    "10x10x10xf3210x10x10xf32*xf32": 6,
    "10x10x10xf32": 16,
    "1x3x5x7xf32*xf16": 3,
    "1x3x5x7xf32": 8,
    "2x1x6x1xf326x2xf32*xf32": 2,
    "2x1x6x1xf32": 5,
    "6x2xf32": 3,
    "16x32x64xf32*xf32*xf32": 6,
    "?x?x64xf32*xf32*xf32": 4,
    "?x?x64xf32": 5,
    "1x2x3x4xf32?xi64*xf32": 1,
    "13x21x1xf321xf3213x21x1xf32": 3,
    "13x21x1xf32": 9,
    "10x20x30xf3210x20x30xf32": 2,
    "?x?x768xf32?x?x768xf32?x12x?x?xf32": 2,
    "2x3x4xf322x3x?xf32": 1,
    "i1i64i64i64": 1,
    "1x1x1x12xf321x1x1x6xf32": 2,
    "1x1x1x12xf32": 3,
    "7xf32*xf16": 1,
    "7xf32": 1,
    "1xi8": 2,
    "?x?x?xf322x800x?xf322x800x200xf322x1600xf322x?x200xf322x?x200xf32?x2x?x200xf322x?x200xf322x?x200xf32": 1,
    "?x?x?xf32": 46,
    "2x800x?xf32": 2,
    "2x800x200xf32": 3,
    "2x1600xf32": 3,
    "2x?x200xf32": 2,
    "4x3x2xf321x12x2xf3212x3xf32*xf32": 1,
    "12x3xf32": 1,
    "1x1x2x2xf324xf32*xf32": 2,
    "5x5x32x32xf325x5x16x16xf32": 3,
    "f32f32f32*xf32": 3,
    "2x3xf32*xf32": 4,
    "2x3xf32": 6,
    "2x4x5x?xf32*xf32": 1,
    "2x4x5x?xf32": 1,
    "1x3x28x28xf321x3x30x30xf321x3x30x30xf32": 1,
    "1x3x28x28xf32": 2,
    "3x2xi64": 5,
    "2x3x4xf322xf16*xf16": 1,
    "2xf16": 1,
    "0xi64*xf32": 2,
    "0xi64": 2,
    "?x?x200xf32i64": 1,
    "?x?x200xf32": 2,
    "3x2x2xf32*xf32": 12,
    "3x2x2xf32": 22,
    "32x64xf3264x128xf32*xf32": 1,
    "32x64xf32": 3,
    "64x128xf32": 1,
    "1x3x5x5xf321x3x1x1xf32": 4,
    "1x3x5x5xf32": 5,
    "1x3x2xf321x15x2xf321x15x5xf321x3x5xf32": 1,
    "1x3x2xf32": 9,
    "1x15x2xf32": 1,
    "1x15x5xf32": 1,
    "1x3x5x7x9xf32*xf32": 1,
    "1x3x5x7x9xf32": 1,
    "1x6x4xf321x1x6xf321xi641xf321xf32?x3xi64": 4,
    "1x6x4xf32": 7,
    "1x1x6xf32": 6,
    "16x32xui832x64xui81xui81xui816x64xi32": 2,
    "16x32xui8": 4,
    "32x64xui8": 4,
    "1xui8": 11,
    "4x3x2xf321x3x2xf32?x?x?xf32*xf32": 1,
    "2x4xf322x4xf32": 1,
    "2x4xf32": 17,
    "2x5x7xf322x5x7xf322x5x7xf32*xf16": 1,
    "3x6xf326x4xf323x4xf323x4xf32": 1,
    "3x6xf32": 6,
    "6x4xf32": 2,
    "4x12x256x256xf32256x64xf324x12x256x64xf32": 1,
    "4x12x256x256xf32": 3,
    "256x64xf32": 1,
    "2x3x4xf32*xf16": 1,
    "f16": 2,
    "i32i32i32i32i32": 1,
    "5x5x30x32xf325x5x15x16xf32": 3,
    "13x21x3xf3213x21x3xf32": 4,
    "13x21x3xf32": 4,
    "3x2x2xf32?xi643x1x2xf32": 6,
    "2x2xi642x2xi64*xi1": 1,
    "?x256x768xf32?x256x1xf32": 1,
    "?x256x768xf32": 1,
    "1x256xi64?x256xi64?x256xi64": 2,
    "1x256xi64": 2,
    "8xi16": 1,
    "?x1x1x384xf32*xf32": 2,
    "?x1x1x384xf32": 2,
    "2x2x2xi64*xi64": 2,
    "2x2x2xi64": 2,
    "7x2x3xf321x16x3xf321x16x4xf321x32xf321x2x4xf321x2x4xf321x12xf32*xf32": 2,
    "1x12xf32": 3,
    "?x3xi1?x3xi1?x3xi1?x3xi1": 1,
    "?x3xi1": 2,
    "?x10xf324xi64*xf32": 2,
    "?x2x3x3xf322x2x3x3xf32?x2x5x5xf32": 1,
    "?x2x3x3xf32": 1,
    "2x2x3x3xf32": 2,
    "?x5xf32?xf32*xf32": 1,
    "?x5xf32": 8,
    "10xf3210xf32": 5,
    "4x3x2xf321x12x2xf321x12x3xf32*xf32": 5,
    "1x3x32x32xf32*xf32": 10,
    "1x3x32x32xf32": 10,
    "2x4xf32*xf32": 12,
    "7x2000x204xf321x32768x204xf321x32768x8193xf321x65544xf327x1x2000x8193xf321x2000x8193xf321x2000x8193xf32": 1,
    "7x2000x204xf32": 16,
    "1x32768x204xf32": 1,
    "1x32768x8193xf32": 1,
    "1x65544xf32": 1,
    "2x3x4x5xf323x1x1xf32*xf32": 2,
    "2x3x4x5xf32": 4,
    "3x1x1xf32": 2,
    "3x?x2xi32*xi32": 1,
    "3x?x2xi32": 1,
    "5x10xf325x10xf32?xf32*xf32": 1,
    "0x1x2xf322x0x1xf32": 1,
    "0x1x2xf32": 2,
    "4x?x3xf32onnxSeq*xf32": 3,
    "4x?x3xf32": 3,
    "5x2x3x4xf32*xui8": 1,
    "5x2x3x4xf32": 5,
    "5x5x1x32xf325x5x3x32xf325x5x4x32xf32": 1,
    "5x5x3x32xf32": 4,
    "2x1xi32": 6,
    "3xf323xf323xf32*xf32": 1,
    "100x4x8xf328x16xf32*xf32": 2,
    "100x4x8xf32": 4,
    "8x16xf32": 8,
    "128x256xf321xf32128x256xf32": 4,
    "?x256x12x64xf32?x12x256x64xf32": 2,
    "?x256x12x64xf32": 2,
    "i32i32i32*xi32": 1,
    "?x?x256x256xf32?x?x256x64xf32?x?x256x64xf32": 1,
    "?x?x256x256xf32": 2,
    "?x?x256x64xf32": 1,
    "3xi323xf32": 4,
    "4xui8f32ui84xf32": 1,
    "4xui8": 1,
    "ui8": 5,
    "i64i64i64*xi64": 1,
    "3x2xf323xi1?x?xf32": 2,
    "3xi1": 11,
    "13x21x1xf3213x21x1xf3213x21x1xf32": 3,
    "1x1x2x4xf321x1x4x8xf32": 2,
    "1x1x2x4xf32": 7,
    "3x4x5xf325xf32*xf32": 3,
    "5xf32": 28,
    "?x?x?xf32?x?x?xf32?x?x?xf32?x?x?xf32": 1,
    "1x2x32x64xi85x2x6x10xi8i8i8*xi32": 4,
    "1x2x32x64xi8": 11,
    "5x2x6x10xi8": 4,
    "10x10xf3210x10xf3210x10xf3210x10xf32*xf32": 1,
    "?x5xf325x10xf32?xf32*xf32": 1,
    "10x10xf3210x10xf3210x10xf32": 3,
    "1x1x2x2xf321x1x4x6xf32": 1,
    "?x?xf64i32*xf64": 1,
    "?x?xf64": 1,
    "0x?x4xf32onnxSeq*xf32": 1,
    "0x?x4xf32": 2,
    "7x2x3xf322x12x3xf322x12x4xf322x24xf322x2x4xf32*xf32": 1,
    "2x12x3xf32": 1,
    "2x12x4xf32": 1,
    "2x24xf32": 1,
    "2x2x4xf32": 4,
    "?x?xf32?x?xf32?xf32*xf32": 1,
    "?x?xf32": 18,
    "1x10xf321x10xf32": 4,
    "2x2xi64i642xf32*xf32": 1,
    "2x3x?xf322x3x4xf32": 1,
    "2x3x?xf32": 1,
    "8x8xi32*xf32": 1,
    "8x8xi32": 2,
    "2x2xi64*xi64": 8,
    "8x?x16x4xf328x?x16x32xf32": 1,
    "8x?x16x4xf32": 2,
    "10x10xf3210x?xf32*xf32": 7,
    "10x?xf32": 12,
    "?x?x?x?xf32*xf32": 1,
    "?x?x?x?xf32": 13,
    "?x?x?xf32?x?xf32*xf32": 1,
    "1x1x3xf321x2x3xf321x2x5xf32": 1,
    "1x1x3xf32": 1,
    "1x2x3xf32": 1,
    "2x10xf322x5xf322x5xf32": 1,
    "2x10xf32": 1,
    "8xf321xi64*xf32": 1,
    "krnlstringindex": 1,
    "krnlstring": 2,
    "5x5x32x32xf325x5x31x31xf32": 1,
    "2x3xf164x3xf16onnxSeq*xf16": 1,
    "2x3xf16": 1,
    "4x3xf16": 2,
    "?x20xf32?x30xf322xi64?x50xf32": 1,
    "2x2xi32": 11,
    "?x256xi642xf32": 1,
    "?x1x?xf32?x3x32xf32?x5x?xf32*xf32": 2,
    "?x1x?xf32": 3,
    "?x3x32xf32": 3,
    "?x5x?xf32": 2,
    "3xf323xf32": 7,
    "?x?x?xf32?x?x?xf32": 6,
    "3xi323xi323xi323xi32": 2,
    "2x256x12x32x64xf322x12x256x32x64xf32": 1,
    "2x256x12x32x64xf32": 1,
    "1x3x5x7xf32*xf32": 5,
    "5x5x32x32xf325x5x30x30xf32": 6,
    "5xf325xf32*xf32": 2,
    "3x4xf32*xf32": 2,
    "5xf32?x5x10xf32*xf32": 2,
    "?x5x10xf32": 2,
    "?x256xi641xi64": 2,
    "5x3x32x32xf32?x3x2x2xf32*xf32": 2,
    "5x3x32x32xf32": 8,
    "?x3x2x2xf32": 3,
    "*xf32*xi64": 2,
    "?x2x2xf32?x2xf32": 1,
    "?x2x2xf32": 1,
    "1x3x224x224xf3264x3x7x7xf3264xf3264xf3264xf3264xf321x64x112x112xf32": 1,
    "1x3x224x224xf32": 7,
    "64x3x7x7xf32": 8,
    "3x4x5xf323x4x5xf323x4x5xi1": 2,
    "2x3xi64*xi64": 2,
    "2x3xi64": 2,
    "4x5xf32?xf32*xf32": 1,
    "4x5xf32": 6,
    "1x1x128xf32128xf32*xf32": 1,
    "1x1x128xf32": 2,
    "128xf32": 6,
    "7x1x3xf321x16x3xf321x16x4xf321x32xf32?xi321x?x4xf32*xf32": 1,
    "7x1x3xf32": 3,
    "3x4x5xf32*xf32": 7,
    "3x2x2xf323x2xf32": 4,
    "1x?x?x7xf32*xf32": 2,
    "1x?x?x7xf32": 3,
    "16x16xf3216x16xf32*xf32": 3,
    "16x16xf32": 7,
    "5x3x32x32xf322x3x2x2xf322xf32*xf32": 3,
    "2x3x2x2xf32": 5,
    "?x?xf32?x?xf32?x?xf32": 2,
    "5x3x1024x1024xf322x3x64x64xf322xf32*xf32": 2,
    "5x3x1024x1024xf32": 7,
    "2x3x64x64xf32": 5,
    "10x10x10xf32*xf32": 1,
    "?x?x?x?xf32?x?x?x?xf32": 7,
    "1x3x28x28xf321x3x30x30xf32": 1,
    "1x1xf321x1xf321x1xf32": 7,
    "1x1xf32": 20,
    "?x?x?xf32?xi64*xf32": 6,
    "1x2x4x8xf32100x4xf32100xi64*xf32": 1,
    "1x2x4x8xf32": 1,
    "100x4xf32": 1,
    "100xi64": 1,
    "?xi642x1x?xi64?x?x?xi64": 1,
    "2x1x?xi64": 1,
    "*xf321x4x3xf321x4x4xf321x8xf321xi321x?x4xf32*xf32": 1,
    "1xi32": 4,
    "?x30xf32?x?x30xf32": 1,
    "1x1x?x28xf32*xf32": 1,
    "1x1x?x28xf32": 1,
    "4x8x16xf32f32*xf32": 1,
    "4x8x16xf32": 1,
    "2xf642xf32": 1,
    "2xf64": 1,
    "?x?x?xf321x4x?xf321x4x4xf321x8xf321x?x4xf32*xf32": 1,
    "1x4x?xf32": 1,
    "2x3x4x5xf323xf323xf322x3x4x5xf32": 1,
    "?x10xi32*xi32": 4,
    "?x10xi32": 4,
    "16x13xf32*xf32": 1,
    "16x13xf32": 1,
    "30xf3230xf3230xf32*xf32": 1,
    "30xf32": 3,
    "5x5x1x32xf32*xi64*xf32": 1,
    "?x2x96x8xf32?x1x96x8xf32?x?x96x8xf32": 2,
    "?x2x96x8xf32": 4,
    "?x1x96x8xf32": 2,
    "5x4x2xf321x12x2xf321x12x3xf32*xf32": 1,
    "?xf321xf32?xi8": 1,
    "2x5xf322x5xf32": 3,
    "3x5x10x20xf321xf32150x20xf32": 1,
    "*xf161xi64*xf16?xi64": 2,
    "7x2x3xf321x2x4xf32*xf32": 2,
    "?x?x95x7xf32?x?x95x7xf32?x?x95x7xf32": 2,
    "?x?x95x7xf32": 4,
    "1xf32*xf32": 1,
    "5x5x16x13xf32*xf32": 2,
    "5x5x16x13xf32": 8,
    "3xf32f32f323xf32": 6,
    "3xf64f64f643xf64": 2,
    "3xf64": 2,
    "f64": 8,
    "3xi32i32i323xi32": 2,
    "2xi642xi642xi643x?x?xi64": 1,
    "10x10xi1610x10xi16*xi16": 1,
    "10x10xi16": 2,
    "10x10xf3210x1xf32*xf32": 1,
    "10x1xf32": 1,
    "2x2xi642xf32*xf32": 2,
    "5x4x2xf321x3x2xf321x3x3xf325x1x3xf325x1x3xf32": 1,
    "1x3x3xf32": 7,
    "4xi8f32i84xf32": 1,
    "4xi8": 1,
    "128x1x1024xf161024x16x64xf16128x1x16x64xf16": 1,
    "128x1x1024xf16": 1,
    "1024x16x64xf16": 1,
    "1x1x3x4xf321x1x3x12xf32": 3,
    "1x1x3x4xf32": 3,
    "64x42xf32?x?x?x?xf32*xf32": 1,
    "64x42xf32": 2,
    "10x11x12x13xf328x15x13x11xf32": 1,
    "4x3x2xf321x9x2xf32?x?x?xf32*xf32": 1,
    "5x4x2xf321x9x2xf321x9x3xf325x4x1x3xf325x1x3xf32": 1,
    "f64f32": 1,
    "?x?x?xf32?x?xf32": 1,
    "32xf3232xf32*xf32": 1,
    "32xf32": 5,
    "1x5xf325x6xf321x6xf32": 1,
    "1x5xf32": 7,
    "5x6xf32": 1,
    "?x5xf325x10xf32?xf32?x10xf32": 1,
    "i64i1*xi64*xi64*xi64": 1,
    "?x?x256x256xf32?x?x256x256xf32": 1,
    "16x32xui832x64xui816xui81xui816x64xi32": 2,
    "16xui8": 2,
    "i16i16i16*xi16": 1,
    "i16": 4,
    "5x5x1x32xf324xi64*xf32": 4,
    "2x?x4xf323xi64onnxSeq*xf32": 1,
    "5x3x32x32xf322x3x2x2xf32*xf32": 1,
    "4x2xf324x2xf32": 1,
    "4x2xf32": 1,
    "4x8xf32*xf32": 2,
    "4x8xf32": 8,
    "2x1x6x1xf32*xf32": 3,
    "4x2x1xi32": 3,
    "5x3x1024x1024xf322x3x65x65xf322xf32*xf32": 2,
    "2x3x65x65xf32": 2,
    "5x5x1x32xf325x5x3x32xf325x5x5x32xf325x5x9x32xf32": 2,
    "5x5x5x32xf32": 3,
    "5x5x16x13xf325x5x14x11xf32": 2,
    "3x2xf323x2xf323x2xf32": 3,
    "7x2000x204xf321x600x204xf321x600x200xf321x1200xf321x2000x200xf321x2000x200xf327x1x2000x200xf32": 1,
    "1x600x204xf32": 6,
    "1x600x200xf32": 7,
    "1x1200xf32": 5,
    "1x2000x200xf32": 17,
    "?x10xi1?x10xi1?x10xi1": 1,
    "?x10xi1": 2,
    "1x3x224x224xf3264x3x7x7xf3264xf321x64x112x112xf32": 2,
    "10x30xf3230xi64*xf32": 1,
    "10x30xf32": 3,
    "30xi64": 1,
    "*xi32": 6,
    "5x5x30x32xf325x5x16x16xf32": 3,
    "1x5x7xf321x5x7xf321x5x7xf321x5x7xf32*xf16": 1,
    "1x5x7xf32": 4,
    "64x25600xf3264x100xi6464x100xf32*xf32": 2,
    "64x25600xf32": 2,
    "64x100xi64": 2,
    "64x100xf32": 2,
    "2x2xf32i64": 1,
    "?x?x?xf321x800x?xf321x800x200xf321x1600xf321x?x200xf321x?x200xf32?x1x?x200xf321x?x200xf321x?x200xf32": 1,
    "1x800x?xf32": 2,
    "1x800x200xf32": 10,
    "1x1600xf32": 8,
    "1x?x200xf32": 2,
    "0xf32*xf32*xi64*xf32": 1,
    "0xf32": 1,
    "3x4x5xf32i64*xf32": 2,
    "3x6xf324x6xf323x4xf323x4xf32": 1,
    "4x6xf32": 1,
    "?x1x32x?x64xf32*xf32": 3,
    "?x1x32x?x64xf32": 3,
    "3x4x5xf325xf323x4x5xi1": 1,
    "1x16x32x64xf321x16x32x64xf32": 1,
    "1x16x32x64xf32": 2,
    "4x3x2xf321x9x2xf321x9x3xf32none": 2,
    "3x4x5xf323x4x5xf32*xf32": 3,
    "3x4x5xf323x4x5xf323x4x5xf32": 1,
    "2x1xf32": 4,
    "3x4xui82x4xi32": 2,
    "3x4xui8": 2,
    "?x?x96x8xf32*xf32": 1,
    "?x?x96x8xf32": 7,
    "2x64x32x8xf322x64x32x8xf3264x32x8xf32*xf32": 1,
    "2x64x32x8xf32": 3,
    "64x32x8xf32": 1,
    "*xf16*xf16": 2,
    "2x2xf322x2xf32": 1,
    "10x?xf3210xi64*xf32": 2,
    "10xi64": 10,
    "?x5x32x32xf32?x5x30x30xf32": 1,
    "?x5x32x32xf32": 1,
    "3x4x6x8x16xf322xf322xf323x4x6x8x16xf32": 1,
    "3x4x6x8x16xf32": 1,
    "?x?x200xf322xi64": 1,
    "64xf161xf321xf321xf321xf3264xf16": 1,
    "64xf16": 1,
    "1x4x3xi81x4x2xi32": 1,
    "1x4x3xi8": 1,
    "2x3x4x5xf323xf323xf323xf323xf322x3x4x5xf32": 1,
    "2x3x4xi162x4x5xi162x3x5xi16": 1,
    "2x3x4xi16": 1,
    "2x4x5xi16": 1,
    "10x4x8xf3210x8x16xf324x16xf32*xf32": 1,
    "10x4x8xf32": 1,
    "10x8x16xf32": 1,
    "4x16xf32": 1,
    "?x50257x768xf32768x50258xf32?x50257x50258xf32": 1,
    "?x50257x768xf32": 2,
    "768x50258xf32": 1,
    "12x3x5xf325xf325xf32*xf32": 2,
    "12x3x5xf32": 4,
    "10x10xf3210x10xf32none": 1,
    "10x20xf3210x30xf32*xi64*xf32": 1,
    "10x20xf32": 2,
    "ui32ui64": 1,
    "ui32": 5,
    "ui64": 2,
    "5x2x3x4xi8f32i8*xf32": 1,
    "5x2x3x4xi8": 1,
    "7x2x3xf322x4x3xf322x4x4xf322x8xf322x2x4xf32*xf32": 1,
    "2x4x3xf32": 1,
    "2x4x4xf32": 2,
    "2x8xf32": 1,
    "?x8x16x16xf32?x8x16x16xf32": 1,
    "?x8x16x16xf32": 1,
    "2x3xf64i32*xf64": 5,
    "2x3x4xf32*xi1": 5,
    "onnxOpt*xf32*xi1": 1,
    "onnxOpt*xf32": 2,
    "2xi642xi642xi64*xi64": 1,
    "1x3x?x?xf3264x3x7x7xf3264xf321x64x?x?xf32": 1,
    "1x3x?x?xf32": 1,
    "3x2xi323x2xi32": 7,
    "1024xf324xf32*xf32": 1,
    "1024xf32": 6,
    "krnlstringi64": 1,
    "1x1x4x4xf321x1x2x2xf321x1x2x2xf32": 1,
    "*xf321x16x3xf321x16x4xf321x32xf321xi321x?x4xf32*xf32": 1,
    "5x3x125x256xf322x3x64x64xf322xf325x2x125x256xf32": 1,
    "5x3x125x256xf32": 1,
    "2x3x4xf322x3x4xi1": 3,
    "4x3xi84x2xi32": 3,
    "4x3xi8": 3,
    "1x3xf321x1xf322x1xf32*xf32": 1,
    "1x3xf32": 2,
    "3x4x5xf323x1x5xf32*xf32": 2,
    "3x1x5xf32": 4,
    "i1onnxSeq2xf32onnxSeq*xf32onnxOpt*xi1onnxOptonnxSeq*xf32": 1,
    "onnxSeq*xf32": 8,
    "onnxSeq2xf32": 1,
    "2xi1": 2,
    "onnxSeq1xf32": 1,
    "10x5xf325x10xf3210x10xf32*xf32": 1,
    "3x4x5xf323x4x5xf32": 3,
    "?x2x96x8xf32?x?x96x8xf32?x?x96x8xf32": 2,
    "4x12x256x256xf324x12x256x64xf324x12x256x64xf32": 1,
    "4x12x256x64xf32": 2,
    "10x5xf325x10xf3210x10xf3210x10xf32": 1,
    "5x3x256x260xf322x3x60x64xf325x2x197x197xf32": 1,
    "5x3x256x260xf32": 1,
    "2x3x60x64xf32": 1,
    "3x5x7x9xf323x5x7x9xf323x5x9x9xf32": 1,
    "3x5x7x9xf32": 2,
    "1x32x112x112xf32*xf32": 1,
    "1x32x112x112xf32": 1,
    "2xf322xi32": 1,
    "10x10xf3210x1x10xf32": 2,
    "10x10xi6410x10xi64*xi64": 1,
    "10x10xi64": 2,
    "1x1x2x4xf321x1x2x8xf32": 4,
    "4x3xi32": 2,
    "3x2xui84x2xi32": 2,
    "3x2xui8": 3,
    "16x39x64xf32*xf32": 1,
    "16x39x64xf32": 1,
    "2x1xi64?x2xi642xi642x1xi64": 1,
    "2x1xi64": 4,
    "?xf321xf321xi8?xi8": 1,
    "128x?xf32128x2xf32": 4,
    "128x?xf32": 4,
    "2x5x9x11xf322x5x1x1xf32": 2,
    "?x?x768xf32768x768xf32?x?x768xf32": 1,
    "768x768xf32": 1,
    "*xi642xi64": 1,
    "1x6x4xf321x2x6xf321xi641xf321xf32?x3xi64": 1,
    "1x2x6xf32": 1,
    "4x4x4xf322x1xi642x4x4xf324x4x4xf32": 1,
    "4x4x4xf32": 2,
    "*xi16onnxSeq*xi16": 1,
    "*xi16": 5,
    "1x1x2x2xf324xf321x1x4x6xf32": 1,
    "4x8xf328x16xf32*xf32": 3,
    "?x?x768xf321xf32?x?x768xf32": 2,
    "1x10x4xf321x1x10xf321xi641xf321xf32?x3xi64": 1,
    "1x10x4xf32": 1,
    "1x1x10xf32": 1,
    "10x11x12x13xf3211x10x13x12xf32": 1,
    "2x3xi8*xi8": 2,
    "2x3xi8": 2,
    "2x3x4xf32*xui8": 1,
    "1x1x28x28xf328x1x5x5xf328xf321x8x28x28xf32": 1,
    "8x1x5x5xf32": 4,
    "10x10xi110x10xi110x10xi1": 1,
    "10x10xi1": 8,
    "7x2x3xf321x12x3xf321x12x4xf321x24xf321x2x4xf32*xf32": 3,
    "1x12x4xf32": 8,
    "1x24xf32": 8,
    "?x?x?xf32?x?x?xf32*xf32": 1,
    "?x?x?xf322x600x?xf322x600x200xf322x1200xf32?x2x?x200xf322x?x200xf32": 1,
    "2x600x?xf32": 1,
    "2x600x200xf32": 1,
    "2x1200xf32": 1,
    "1x6x4xf321x1x6xf321xi641xf321xf32*xi64": 2,
    "16x38x64xf32*xf32": 1,
    "16x38x64xf32": 1,
    "5x?x1x32xf32*xi64": 1,
    "5x?x1x32xf32": 1,
    "5x3x256x256xf322x3x64x64xf325x2x197x199xf32": 1,
    "5x3x256x256xf32": 3,
    "1x1xf32?xf32": 1,
    "7x2000x204xf321x800x204xf321x800x200xf321x1600xf321x2000x200xf321x2000x200xf327x1x2000x200xf321x2000x200xf32": 1,
    "1x800x204xf32": 8,
    "1x1x28x28xf64*xf32": 1,
    "1x1x28x28xf64": 1,
    "1x256x8x16xf321x256x8x16xf32": 1,
    "1x256x8x16xf32": 2,
    "?x?x10xf321x16x10xf321x16x4xf321x32xf32?xi32?x?x4xf32?x?x4xf32*xf32": 1,
    "?x?x10xf32": 3,
    "1x16x10xf32": 1,
    "?x?x4xf32": 4,
    "20x1xf32*xf32": 1,
    "5x5x32x32xf325x5x30x34xf32": 3,
    "1x3x5x?xf161x3x5x?xf32": 1,
    "1x3x5x?xf16": 2,
    "*xf64": 1,
    "4x3x2xf321x3x2xf321x3x3xf32*xf32": 3,
    "5xf325x10xf32*xf32": 2,
    "*xf32*xf32": 8,
    "?x256xi64?x256xi64?x?x?xi64": 2,
    "1x3x32xf321x3x31xf321x3x31xf32": 1,
    "1x3x32xf32": 1,
    "?x30xf32i32?x?x30xf32": 1,
    "16x?x?x42xf3232x?x64x42x32xf32*xf32": 1,
    "16x?x?x42xf32": 1,
    "32x?x64x42x32xf32": 1,
    "?x256x?xi642xi64": 2,
    "?x256x?xi64": 2,
    "2xi32": 3,
    "2x2xf322x1xi64*xf32": 1,
    "8x8xi32*xi32": 1,
    "1x2x3x3xf322x2x3x3xf321x2x5x5xf32": 1,
    "1x2x3x3xf32": 9,
    "?x?x?xf321x800x?xf321x800x200xf321x1600xf32?x1x?x200xf321x?x200xf321x?x200xf32": 1,
    "10x?xf32index": 1,
    "3x1x5xf323x?x1xf32*xf32": 2,
    "3x?x1xf32": 2,
    "1x2xui81x2xui8": 1,
    "1x2xui8": 1,
    "?x?x?x?xf325x2x6x7xf325xf32*xf32": 2,
    "1x?xf32*xf32": 1,
    "1x?xf32": 2,
    "onnxSeq?x4x5xf323xi64": 2,
    "onnxSeq?x4x5xf32": 2,
    "5x5x16x13xf325x5x4x4xf32": 4,
    "5x2x3x4xf32*xf32": 1,
    "?x?xf32?x?xf32*xf32": 1,
    "?x3xf32?x3xf32?x3xf32?x3xf32": 1,
    "?x3xf32": 2,
    "5x7xf32*xf16": 2,
    "5x7xf32": 2,
    "128xf32f32f32128xf32": 2,
    "?x20x30xf32?x20x30xf32": 1,
    "1x1x3x3xf321x2x3x3xf32*xf32": 2,
    "1x9x32x64xf325x9x6x7xf32*xf32": 1,
    "1x9x32x64xf32": 2,
    "5x9x6x7xf32": 1,
    "4x3x2xf321x12x2xf321x12x3xf32none": 1,
    "3x4xf322xf32*xf32": 1,
    "?x3xf16?x3xf16?x3xf16?x3xf16": 1,
    "?x3xf16": 2,
    "128x1024xf321x128x16x64xf32": 1,
    "128x1024xf32": 1,
    "12x128x1024xf3212x128x16x64xf32": 1,
    "12x128x1024xf32": 1,
    "5x1x32xf325x3x32xf325x5x32xf32*xf32": 2,
    "5x1x32xf32": 2,
    "5x3x32xf32": 2,
    "5x5x32xf32": 2,
    "3x3xf323x1x2xf32": 2,
    "1x2xf32": 2,
    "3x5xf325x3xf32": 2,
    "3x5xf32": 3,
    "1x3x5x2048xf32*xf32": 1,
    "1x3x5x2048xf32": 1,
    "ui8i1": 1,
    "3x?xf32*xf32": 1,
    "3x?xf32": 2,
    "1x2x3x4xf32f32*xf32": 2,
    "1x3x224x224xf3264xf3264x3x7x7xf3264xf3264xf3264xf3264xf321x64x112x112xf32": 1,
    "?x?xf32?x?xf32": 1,
    "5x3x32x32xf321024x3x2x2xf325x1024x33x33xf32": 1,
    "1024x3x2x2xf32": 1,
    "4x5xi64i644x5xi64": 2,
    "4x5xi64": 2,
    "?x42x32xf3232xf32*xf32": 1,
    "?x5xf325x10xf3210xf32*xf32": 1,
    "5x5x32x32xf325x5x32x32xf32": 5,
    "?x3xi16?x3xi16?x3xi16?x3xi16": 1,
    "?x3xi16": 2,
    "1x?x?x7xf321x3x5x7xf32": 1,
    "1024x32x1xf321024x32x1xf32": 1,
    "1024x32x1xf32": 1,
    "1x?xf32?xf32": 1,
    "7x2000x204xf321x800x204xf321x800x200xf321x1600xf321x2000x200xf321x2000x200xf321x2000x200xf32": 1,
    "3x2xf323xi1?x2xf32": 1,
    "2x6xf326xf32*xf32": 1,
    "2x6xf32": 2,
    "6xf32": 7,
    "60xf3260xf32*xf32": 1,
    "60xf32": 2,
    "1x72x8x14xf3272x24x4x4xf3272xf321x72x16x28xf32": 1,
    "1x72x8x14xf32": 1,
    "72x24x4x4xf32": 1,
    "72xf32": 1,
    "i64i11xi641xi64": 1,
    "1x64x112x112xf3264xf32*xf32": 1,
    "3x4x5xf163x4x5xf16": 1,
    "3x4x5xf16": 1,
    "?x1280x1x1xf32448x1280x1x1xf32448xf32*xf32": 1,
    "?x1280x1x1xf32": 1,
    "448x1280x1x1xf32": 1,
    "448xf32": 1,
    "1x3x5x?xf163xi645x3x?xf16": 1,
    "6xf32f32ui86xui8": 1,
    "4x3x2xf321x12x2xf32?x?x?xf32*xf32": 1,
    "?x4x2x2xf32?x2x?xf32": 1,
    "?x4x2x2xf32": 1,
    "1x9x32x64xf326x3x6x7xf32*xf32": 1,
    "6x3x6x7xf32": 1,
    "f32f322xf32*xf32": 1,
    "?x?x768xf32f32?x?x768xf32": 1,
    "1x1xi32": 2,
    "7x2000x204xf321x800x204xf321x800x200xf321x1600xf327x1x2000x200xf321x2000x200xf321x2000x200xf32": 2,
    "2x1x6x1xi64*xi64": 1,
    "2x1x6x1xi64": 1,
    "32769x3x5x7xf32*xf32": 1,
    "32769x3x5x7xf32": 1,
    "2x5x9x11xf322x5x9x11xf32": 1,
    "2x2xf322x2xf32*xi1": 1,
    "7x2000x204xf321x600x204xf321x600x200xf321x1200xf327x1x2000x200xf321x2000x200xf32": 1,
    "2x2x2xf322x1x2xi64*xf32": 1,
    "2x2x2xf32": 4,
    "2x1x2xi64": 2,
    "2x4x8x16xf32i64": 1,
    "2x4x8x16xf32": 3,
    "5x?xf32?x10xf3210xf325x10xf32": 1,
    "10x11x12x13xf324xi6410x11x12x13xf32": 1,
    "4x3xi644x2xi64": 1,
    "4x3xi64": 1,
    "1x1x5x5xf321x1x3x3xf321x1x3x3xf32": 1,
    "1x1x5x5xf32": 4,
    "1x1x5x5xf321x1x3x3xf321x1x5x5xf32": 1,
    "10x1x10xf3210x1x10xi64": 1,
    "i64f32": 1,
    "1x5xf324x5xf324xf321x4xf32": 1,
    "?x?x3xf32onnxSeq*xf32": 1,
    "?x?x3xf32": 1,
    "3x2xi324x2xi32": 1,
    "?x?x64xf32f32*xf32": 1,
    "2x4xf322x6xf32onnxSeq*xf32": 1,
    "1x3x224x224xf3264x3x7x7xf3264xf32*xf32": 1,
    "?x4x5xf321x?x1xf32?x4x5xi1": 2,
    "1x?x1xf32": 2,
    "3x4x2x2xf322xf322xf323x4x2x2xf32": 1,
    "3x4x2x2xf32": 2,
    "5x4x2xf321x3x2xf321x3x3xf32*xf32": 1,
    "10x10xi110x10xi1*xi1": 3,
    "1x?xi641x1x1x?xf32": 1,
    "1x?xi64": 1,
    "3x5x10x20xf3220x1xf323x5x10x1xf32": 1,
    "*xf321x4x3xf321x4x4xf321x8xf32?xi321x1x4xf32*xf32": 1,
    "4x2x1xf64": 1,
    "?x256xi64?x256xi64?x1x256x256xf32?x1x256x256xf32?x1x256x256xf32": 1,
    "?x2xf32?x2xui8f32ui8": 1,
    "?x2xf32": 1,
    "?x5xf3210x?xf3210xf325x10xf32": 1,
    "3x3xf32f32": 1,
    "3x4x5xf325xf32*xi1": 1,
    "8x8xf16*xf32": 1,
    "8x8xf16": 2,
    "2x5x9x11xf321x1x1x1xf32": 1,
    "2x2xi1*xi64": 1,
    "2x2xi1": 2,
    "1x1x3x3xf321x2x3x3xf321x2x5x5xf32": 1,
    "2x4xf32?xi642x4xf32": 2,
    "?x50257x768xf32768x1024xf32?x50257x1024xf32": 1,
    "768x1024xf32": 1,
    "?x?x768xf32768x50257xf32?x?x50257xf32": 1,
    "768x50257xf32": 1,
    "1x1x1x12xf321x1x1x4xf32": 1,
    "?x?x?xf321x600x?xf321x600x200xf321x1200xf32?x1x?x200xf321x?x200xf32": 1,
    "1x600x?xf32": 1,
    "?x4x5xi32?x4x5xi32*xi32": 1,
    "?x4x5xi32": 2,
    "1x2x3x4xf322xi64*xf32": 2,
    "i64index": 1,
    "1x10x1x10xf3210x1x10x1xf32": 4,
    "1x10x1x10xf32": 4,
    "1x2x32x64xf325x2x6x7xf325xf32*xf32": 1,
    "1x3x5x5xf321x3x7x7xf32": 1,
    "3x3xf322x3xf32": 1,
    "5xf32*xf32": 1,
    "2x3xf322xf32": 1,
    "1x1xf321x1xf32": 2,
    "1x2x3x4xf324xf32*xf32": 1,
    "32769x5xf325x32769xf3232769xf32*xf32": 2,
    "32769x5xf32": 3,
    "5x32769xf32": 3,
    "32769xf32": 4,
    "13x21x1xi321xi3213x21x1xi32": 1,
    "13x21x1xi32": 3,
    "?x?x?xf322x800x?xf322x800x200xf322x1600xf32?x2x?x200xf322x?x200xf322x?x200xf32": 1,
    "256x256xf324x12x256x64xf324x12x256x64xf32": 1,
    "256x256xf32": 1,
    "2xf323x2xf32*xf32*xf32": 1,
    "1x1x3x3xf321x2x3x3xf321x2x7x3xf32": 2,
    "?xi64?xi64?xi64?xi64": 1,
    "i1*xf32*xi16*xui8": 1,
    "4x32769xf3232769x16xf32*xf32": 1,
    "4x32769xf32": 1,
    "32769x16xf32": 1,
    "5x3x32x32x32xf322x3x2x2x2xf322xf32*xf32": 1,
    "5x3x32x32x32xf32": 1,
    "2x3x2x2x2xf32": 1,
    "4xi32f32i324xf32": 1,
    "128x128xf32128x128xf32128xf32*xf32": 2,
    "4x8xf328x16xf3216xf32*xf32": 2,
    "16xf32": 2,
    "?x?x?xf32?x?x?xf32?x?x?xf32*xf32": 3,
    "128xf321x1x128xf32*xf32": 1,
    "f32*xf32": 1,
    "3x4x5xf323x4x5xf32*xi1": 1,
    "2x2xf322x2xi642xf32": 1,
    "?x?xf3210x30xf32*xi64*xf32": 1,
    "4x3xui83x2xui81xui81xui8*xi32": 1,
    "4x3xui8": 1,
    "128xi32i32i32128xi32": 1,
    "128xi32": 1,
    "i64i1?xf32?x?xf32": 1,
    "3x2xf323xi13x?xf32": 1,
    "2x3x10x5xf322x3x5x10xf32*xf32": 2,
    "2x3x10x5xf32": 2,
    "?x?xf322xi64?x?xf32": 1,
    "10x10xf3210x?xf3210x10xf32": 1,
    "2xf32onnxOpt*xf32": 1,
    "?x?x96x8xf32?x?x96x8xf32?x?x96x8xf32": 2,
    "4x5xf324x5xf32*xf32": 1,
    "128x256x768xi32*xi32": 1,
    "128x256x768xi32": 1,
    "2x3x1xf321x4x5xf32*xf32": 1,
    "2x3x1xf32": 2,
    "1x4x5xf32": 2,
    "1x3x224x224xf3264x3x7x7xf32*xf32": 1,
    "6x3xf326x4xf323x4xf323x4xf32": 1,
    "6x3xf32": 1,
    "f32i32": 1,
    "?x?x768xf32*xf32": 1,
    "1x2xi32": 1,
    "i12xf32": 1,
    "?x4x5xf323x4x5xf323xi64": 1,
    "2x4xf323x6xf32onnxSeq*xf32": 1,
    "7x1x3xf321x12x3xf321x12x4xf321x24xf32?xi321x?x4xf32*xf32": 1,
    "5x3x256x256xf327x3x64x64xf325x7x15x15xf32": 1,
    "7x3x64x64xf32": 1,
    "?x?x10xf321x12x10xf321x12x4xf321x24xf32?xi32?x?x4xf32*xf32": 1,
    "1x12x10xf32": 1,
    "2xf322xf32": 2,
    "10x5xf325x10xf325xf32*xf32": 1,
    "2x?x4xf32onnxSeq*xf32": 3,
    "1x3x4x5xf328xi64f32*xf32": 3,
    "1x3x4x5xf32": 3,
    "8xi64": 3,
    "*xf32*xf32onnxSeq*xf32": 1,
    "*xf328x1x5x5xf328xf32*xf32": 1,
    "7x1x3xf321x4x3xf321x4x4xf321x8xf32?xi321x?x4xf32*xf32": 1,
    "?x?xf32*xf32": 2,
    "5x4x2xf321x9x2xf321x9x3xf32*xf32": 1,
    "5x2x3x4xf32f32i8*xi8": 1,
    "?x?x8xf32?x?xf32?x?x8xf32": 1,
    "?x?x8xf32": 1,
    "5x10xf325x10xf3210xf3210x10xf32": 2,
    "?x?x97x8xf32*xf32": 1,
    "?x?x97x8xf32": 1,
    "3x4x?x?xf32*xf32": 1,
    "3x4x?x?xf32": 1,
    "64x42xf3216x?x42x32xf32*xf32": 1,
    "16x?x42x32xf32": 1,
    "3xi64*xf32": 2,
    "?x3x?xf32?x3x?xf32": 2,
    "?x3x?xf32": 2,
    "10x?x30x40xf32*xf32": 1,
    "10x?x30x40xf32": 1,
    "32xf3232x64xf32*xf32": 1,
    "?x4x1xf32?x?x5xf32?x1x5xf32?x4x5xf32": 1,
    "?x4x1xf32": 1,
    "?x1x5xf32": 1,
    "2x6x4xf322x1x6xf321xi641xf321xf32?x3xi64": 1,
    "2x6x4xf32": 1,
    "2x1x6xf32": 1,
    "i64i11xi64*xi64*xi64": 1,
    "?x10x5xf325xf32*xf32": 2,
    "?x10x5xf32": 2,
    "1x1x3x3xf321x2x3x3xf321x2x9x7xf32": 1,
    "1x2x32x64xi85x2x6x7xi8i8i8*xi32": 7,
    "5x2x6x7xi8": 7,
    "onnxOpt2xf32onnxOpt*xf32": 1,
    "onnxOpt2xf32": 2,
    "7x2000x204xf321x800x204xf321x800x200xf321x1600xf321x2000x200xf321x2000x200xf327x1x2000x200xf321x2000x200xf321x2000x200xf32": 1,
    "10x5xf325x10xf32*xf32": 1,
    "32769x3x32x32xf32*xf32": 1,
    "32769x3x32x32xf32": 2,
    "1x1x3x4x5xf321x2x3x3x3xf321x2x5x6x7xf32": 1,
    "1x1x3x4x5xf32": 1,
    "1x2x3x3x3xf32": 1,
    "100x4x8xf32100x8x16xf32*xf32": 2,
    "100x8x16xf32": 2,
    "2x3x4xf32*xi64": 2,
    "1x5xf324x5xf321x4xf32": 1,
    "3x2xi643x2xi643x2xi64": 1,
    "1x3x64x64xf321x5xf32*xf32": 1,
    "1x3x64x64xf32": 1,
    "7x2000x204xf321x600x204xf321x600x200xf321x2000x200xf321x2000x200xf32": 1,
    "i64i11xi641xf32*xi64*xf32*xi64*xf32": 1,
    "7x2x3xf321x2x4xf321x2x4xf32*xf32": 1,
    "?x1x?xf32?x5xf32*xf32": 1,
    "10xf64*xf32": 1,
    "10xf64": 1,
    "1024xf324x1024xf32*xf32": 1,
    "4x1024xf32": 1,
    "1x1x1x1xf321x1x4x4xf32": 1,
    "1x1x1x1xf32": 2,
    "?x?xi64?x?xi64?x?xi64": 1,
    "?x?xi64": 4,
    "12x3x5xf325xf32*xf32": 2,
    "i1onnxSeq*xf32": 1,
    "7x2000x204xf321x600x204xf321x600x200xf321x2000x200xf321x2000x200xf327x1x2000x200xf32": 1,
    "1x256x8x16xf32*xf32": 1,
    "?x256xi644xi64": 1,
    "1x16x32x64xf32*xf32": 1,
    "i32i32i1": 1,
    "1024x1024x1024xf321024x1024x1024xf32": 1,
    "1024x1024x1024xf32": 1,
    "ui64ui32": 1,
    "?x?x97x9xf32*xf32": 1,
    "?x?x97x9xf32": 1,
    "?x2x?xf32i64": 1,
    "?x2x?xf32": 2,
    "1x1x2x2xf321x1x2x2xi64?x?x?x?xf32?x?x?x?xf32": 1,
    "1x1x2x2xi64": 1,
    "?x?x768xf32768xf32?x?x768xf32": 2,
    "1x?x8x?xf321x?x32x?xf32": 1,
    "1x?x8x?xf32": 2,
    "4xi64i64i64": 1,
    "0x1x2xf32*xf32": 1,
    "2x?xi642x1x1x?xf32": 1,
    "2x?xi64": 2,
    "?x?x768xf32?x?x1xf32": 1,
    "2x2x2xf322x2xi64*xf32": 1,
    "8xi32*xi32": 1,
    "8xi32": 2,
    "7x2000x204xf322x800x204xf322x800x200xf322x1600xf327x2x2000x200xf322x2000x200xf322x2000x200xf32": 1,
    "2x800x204xf32": 1,
    "?x?x768xf321x1x768xf32?x?x768xf32": 1,
    "1x1x768xf32": 1,
    "10x5xf3210x5xf3210xf32*xf32": 1,
    "2x3xf323x2xf32": 1,
    "?x?x?xf32*xf32": 2,
    "4x4x4xf32*xf32": 1,
    "1x1x5x5xf32*xf32": 2,
    "10x10xi3210x10xi32*xi32": 1,
    "10x10xi32": 2,
    "?x5xf325x10xf3210xf32?x10xf32": 1,
    "1024xf321024xf321024xf32": 2,
    "3x3xf323xf32": 1,
    "?x3x4xf322x3x?xf32": 1,
    "?x3x4xf32": 1,
    "16x?x64x42xf3242x32xf32*xf32": 1,
    "16x?x64x42xf32": 1,
    "42x32xf32": 1,
    "?x3xi32?x3xi32?x3xi32?x3xi32": 1,
    "?x3xi32": 2,
    "f64f64f64*xf64": 1,
    "4x3xf164x2xf16": 1,
    "5x64x256x256xf3212x16x45x45xf3212xf325x12x17x17xf32": 1,
    "5x64x256x256xf32": 1,
    "12x16x45x45xf32": 1,
    "12xf32": 1,
    "5x3x1024x1024xf323x1x2x2xf323xf32*xf32": 1,
    "3x1x2x2xf32": 1,
    "2x3x1xf321x4x5xf322x3x5xf32": 1,
    "f16f32": 1,
    "4x3x2xf3212x2xf321x12x3xf32*xf32": 1,
    "12x2xf32": 1,
    "f32f32*xf32": 1,
    "i64i32": 1,
    "5x4x2x1xi32": 2,
    "?x10xf32?x10xf3210xf32*xf32": 1,
    "3x4x5xf321x5xf32*xf32": 2,
    "?x3xi8?x3xi8?x3xi8?x3xi8": 1,
    "?x3xi8": 2,
    "8x8xf16*xf16": 1,
    "3x2xf323xi1*xf32": 1,
    "7x2x3xf322x16x3xf322x16x4xf322x32xf322x2x4xf322x2x4xf322x12xf32*xf32": 1,
    "2x16x3xf32": 1,
    "2x16x4xf32": 1,
    "2x32xf32": 1,
    "2x12xf32": 1,
    "?x3xf64?x3xf64?x3xf64?x3xf64": 1,
    "?x3xf64": 2,
    "4x3x2xf321x3x2xf321x3x3xf32none": 2,
    "*xf321x12x3xf321x12x4xf321x24xf32?xi321x1x4xf32*xf32": 1,
    "6xf326x2xf32*xf32": 1,
    "5x3x32x32xf32?x3x2x2xf325x?x31x31xf32": 1,
    "1x3x5x?xf321x3x5x?xf16": 1,
    "1x3x5x?xf32": 1,
    "0x?x4xf323xi64onnxSeq*xf32": 1,
    "10x5xf325x10xf3210xf3210x10xf32": 1,
    "7x2000x204xf321x800x204xf321x800x200xf321x2000x200xf321x2000x200xf321x2000x200xf32": 1,
    "32769x5xf325x32769xf3232769xf3232769x32769xf32": 1,
    "i64i1": 1,
    "1x3x224x224xf32*xf32": 1,
    "?x3xi64?x3xi64?x3xi64?x3xi64": 1,
    "?x3xi64": 2,
    "10x5xf325x10xf325xf325x5xf32": 1,
    "7x2000x204xf321x600x204xf321x600x200xf321x1200xf321x2000x200xf321x2000x200xf32": 1,
    "10x20xf32index": 1,
    "3x2x2xi643x2xi64": 1,
    "3x2x2xi64": 1,
    "1x5xf325x5xf321x5xf32": 1,
    "5x5xf32": 2,
    "1x2x32x64xf325x2x8x9xf32*xf32": 1,
    "5x2x8x9xf32": 1,
    "*xf32*xf32*xf32*xi64*xf32": 1,
    "4x4x4xi32": 1,
    "1x256x768xf321x256x1xf32": 1,
    "1x256x768xf32": 1,
    "32xf32*xf32*xf32": 1,
    "1x1x1x4xf321x1x1x12xf32": 1,
    "1x1x1x4xf32": 1,
    "3x5xf325x4xf323x4xf323x4xf32": 1,
    "5x4xf32": 1,
    "2x3x4xf322x4x5xf322x3x5xf32": 1,
    "2x4x5xf32": 2,
    "?x?x3x3xf32?x?x3x3xf32?x?x10x8xf32": 1,
    "?x?x3x3xf32": 2,
    "5x3x1024x1024xf322x3x128x128xf322xf32*xf32": 2,
    "2x3x128x128xf32": 2,
    "1x3x223x223xf3264x3x7x7xf3264xf321x64x112x112xf32": 1,
    "1x3x223x223xf32": 1,
    "?x?x10xf321x4x10xf321x4x4xf321x8xf32?xi32?x?x4xf32*xf32": 1,
    "1x4x10xf32": 1,
    "10x10x10xf3210x10x10xf3210x10x10xf3210x10x10xf32": 1,
    "2xi8": 2,
    "3x2xf322xi1?x2xf32": 1,
    "?x?x?xf321x16x?xf321x16x4xf321x32xf321x?x4xf321x?x4xf321x12xf32*xf32": 1,
    "1x16x?xf32": 1,
    "8x?x16x4xf32?x4x32xf32": 1,
    "3x3xf323x2xi643x2xf32*xf32*xf32": 1,
    "32x64xf3264xf32*xf32": 1,
    "1x3x65x65xf321x3x1x1xf321x3x1x1xf32": 1,
    "1x3x65x65xf32": 1,
    "256x?xf324x12x?x?xf324x12x256x?xf32": 1,
    "256x?xf32": 1,
    "4x12x?x?xf32": 1,
    "?x1x3x3xf321x2x3x3xf32?x2x10x8xf32": 1,
    "?x1x3x3xf32": 1,
    "2x64x31x3xf3231x3xf3231x3xf32*xf32": 1,
    "2x64x31x3xf32": 1,
    "31x3xf32": 2,
    "?x3x2xf32*xi64": 1,
    "?x3x2xf32": 1,
    "3x?xf323xf32": 1,
    "1028x256xf32*xf32": 1,
    "1028x256xf32": 1,
    "f32i64": 1,
    "4x12x256x256xf324x12x256x256xf32": 1,
    "6xf326xf32*xf32": 2,
    "?x?x768xf321x1xf32?x?x768xf32": 1,
    "2x2x2xf322x1xi64*xf32": 1,
    "1x1x3x3xf321x2x3x3xf321x2x10x8xf32": 1,
    "5x5x1x32xf32*xi64": 1,
    "5x2x3x4xf32f32*xui8": 1,
    "1x2x3x4xf32f321x2x3x4xf32": 1,
    "?x?x?x?xf321x1x1x1xf32?x1x?x?xf32": 1,
    "1x?x28x28xf32*xf32": 1,
    "1x?x28x28xf32": 1,
    "16x16xf3218x20xf32": 1,
    "3x5x7xf32*xf16": 2,
    "3x5x7xf32": 2,
    "3x4x5xf32?x4x5xf323x4x5xf32": 1,
    "*xf328x1x5x5xf32*xf32": 1,
    "1x1x2x4xf321x1x1x2xf32": 1,
    "2x4x8xf323x6xf32onnxSeq*xf32": 1,
    "2x4x8xf32": 1,
    "1x2x32xf325x2x6xf325xf32*xf32": 1,
    "1x2x32xf32": 2,
    "5x2x6xf32": 2,
    "1x2x3x4xf321xf321xi1*xf32": 1,
    "1xi1": 2,
    "64xf321xf321xf321xf321xf3264xf32": 1,
    "?x?x768xf32?x?x1xf32768xf32768xf32?x?x768xf32": 1,
    "?x?x1xf32": 1,
    "2x2xi12x2xf322x2xf322x2xf32": 1,
    "5x?x3x4xi8*xf322xi8*xf32": 1,
    "5x?x3x4xi8": 1,
    "?x?xi641x1xi64?x?xi64": 1,
    "1x1xi64": 1,
    "1xf321x70xf32": 1,
    "2x2xi32?x2xi64?xi32": 1,
    "1x2x3x4xf321xf321xi1*xf32*xi1": 1,
    "1xi641xi64f32?x1x?xf32": 1,
    "2x5xf324x5xf321xf322x4xf32": 1,
    "2x5xf32": 2,
    "3x2xf323xi1?xf32": 1,
    "?x2x?xf32?x5xf32*xf32": 1,
    "1x3x32x32x32xf321x3x31x31x31xf321x3x31x31x31xf32": 1,
    "1x3x32x32x32xf32": 1,
    "7x2000x204xf321x800x204xf321x800x200xf321x2000x200xf321x2000x200xf327x1x2000x200xf321x2000x200xf32": 1,
    "2x3x4x5x6xf323xf323xf322x3x4x5x6xf32": 1,
    "2x3x4x5x6xf32": 2,
    "32769x3x32x32xf3232769x3x2x2xf3232769xf32*xf32": 1,
    "32769x3x2x2xf32": 1,
    "6xi16": 1,
    "?x?x768xf321x768xf32?x?x768xf32": 1,
    "1x768xf32": 1,
    "1x3x10x10xf321x3x10x10xf32": 1,
    "1x3x10x10xf32": 1,
    "128x128x256xf32128x128x256xf32256xf32*xf32": 1,
    "128x128x256xf32": 2,
    "256xf32": 1,
    "?x?x?xf32?x?x?xf321xi641xf321xf32*xi64": 1,
    "10xf321xf321xf321xf321xf3210xf32": 1,
    "4x8xf328x16xf321xf32*xf32": 1,
    "?x10xf32?x10xf32?x10xf32": 1,
    "5x3x256x256xf322x3x64x64xf322xf325x2x15x15xf32": 1,
    "?x?x?xf321x12x?xf321x12x4xf321x24xf321x2x4xf32*xf32": 1,
    "1x12x?xf32": 1,
    "2x64x32x8xf3232x8xf3232x8xf32*xf32": 1,
    "32x8xf32": 2,
    "3x6xf326x6xf323x6xf323x6xf32": 1,
    "6x6xf32": 1,
    "?x?xf321xi64*xf32*xi64": 1,
    "?x?xf32?xf32?xf32": 1,
    "*xf32*xi64*xf32": 1,
    "2x2x4xui81xf321xui82x4x3xui81xf321xui81xf321xui8*xui8": 1,
    "2x2x4xui8": 1,
    "2x4x3xui8": 1,
    "1x2x32xf325x2x6xf32*xf32": 1,
    "7x2000x204xf321x600x204xf321x600x200xf321x1200xf321x2000x200xf327x1x2000x200xf321x2000x200xf32": 1,
    "3x?x2xf32*xf32": 1,
    "3x?x2xf32": 1,
    "10x10xi810x10xi8*xi8": 1,
    "10x10xi8": 2,
    "onnxSeq*xf32*xi64": 1,
    "i32i64": 1,
    "f32f32i1": 1,
    "2x2x2xf322x1x2xi642x1x2xf32": 1,
    "1x16xf321x16xf321x16xf32": 1,
    "1x16xf32": 2,
    "3x2xf322x2xf32": 2,
    "5x5x1x32xf325x5x3x32xf325x5x5x32xf32*xf32": 1,
    "?x?xi64?x?xi64": 1,
    "onnxOpt2xf32*xf32": 1,
    "2xf32*xf32*xf32*xf32": 1,
    "10x5xf325x10xf3210x10xf32": 1,
    "1x?x8x?xf321x?x2x?xf32": 1,
    "?x12x?x64xf32?x?x?x?xf32": 1,
    "?x12x?x64xf32": 1,
    "11x5xf323x11xf325x3xf325x3xf32": 1,
    "11x5xf32": 1,
    "3x11xf32": 1,
    "5x3xf32": 1,
    "3x4x2x2xf323x2x8xf32": 1,
    "1024xi32?x4xf32*xf32": 1,
    "?x4xf32": 1,
    "2x3x4x5x6xf323xf323xf323xf323xf322x3x4x5x6xf32": 1,
    "32x64xi64*xi64": 1,
    "32x64xi64": 1,
    "3x2xf326xi1?xf32": 1,
    "6xi1": 1,
    "5x2x3x4xf32f32ui8*xui8": 1,
    "2x4x8x16xf324xi64": 2,
    "?xi64*xi32": 1,
    "7x2000x204xf321x32643x204xf321x32643x10881xf321x65280xf327x1x2000x10881xf321x2000x10881xf32": 1,
    "1x32643x204xf32": 1,
    "1x32643x10881xf32": 1,
    "1x65280xf32": 1,
    "?x?x?xf32?x3x32xf32?x?x?xf32*xf32": 1,
    "4x4xf324xf324xf32": 1,
    "4x4xf32": 1,
    "2x3x4xf322x4x5xf32*xf32": 1,
    "3xi32*xf32": 1,
    "7x32769x204xf321x800x204xf321x800x200xf321x1600xf327x1x32769x200xf321x32769x200xf321x32769x200xf32": 1,
    "7x32769x204xf32": 1,
    "1x1x28x28xf328x1x5x5xf321x8x28x28xf32": 1,
    "4x?xf32?xf32*xf32": 1,
    "4x?xf32": 1,
    "13x21x1xi3213x21x1xi3213x21x1xi32": 1,
    "?x8x?xf32?x?xf32?x8x?xf32": 1,
    "?x8x?xf32": 1,
    "1x3x?x32xf32*xf32": 1,
    "1x3x?x32xf32": 1,
    "5x3x?x?xf322x3x2x2xf322xf32*xf32": 1,
    "5x3x?x?xf32": 1,
    "3x2x2xi32*xi32": 1,
    "3x2x2xi32": 1,
    "?x4x8x16xf324xi64": 1,
    "?x4x8x16xf32": 2,
    "20x2x3xf32*xf32": 1,
    "20x2x3xf32": 1,
    "5x5x?x32xf325x5x?x32xf325x5x?x32xf32": 1,
    "5x5x?x32xf32": 2,
    "*xf321x12x3xf321x12x4xf321x24xf321xi321x?x4xf32*xf32": 1,
    "1x3xf321x1xf322x1xf322x3xf32": 1,
    "?x10x10xf32*xf32": 1,
    "?x10x10xf32": 1,
    "?x4x8x16xf32*xi64": 1,
    "1x1x28x?xf32*xf32": 1,
    "1x1x28x?xf32": 1
  },
  "complexity_metrics": [
    {
      "region_depth": 2,
      "total_ops": 3,
      "total_blocks": 2,
      "ssa_values": 0,
      "functions": 0,
      "modules": 0
    },
    {
      "region_depth": 2,
      "total_ops": 3,
      "total_blocks": 2,
      "ssa_values": 0,
      "functions": 0,
      "modules": 0
    },
    {
      "region_depth": 2,
      "total_ops": 8,
      "total_blocks": 2,
      "ssa_values": 0,
      "functions": 0,
      "modules": 0
    },
    {
      "region_depth": 2,
      "total_ops": 4,
      "total_blocks": 2,
      "ssa_values": 0,
      "functions": 0,
      "modules": 0
    },
    {
      "region_depth": 2,
      "total_ops": 3,
      "total_blocks": 2,
      "ssa_values": 0,
      "functions": 0,
      "modules": 0
    },
    {
      "region_depth": 2,
      "total_ops": 3,
      "total_blocks": 2,
      "ssa_values": 0,
      "functions": 0,
      "modules": 0
    },
    {
      "region_depth": 2,
      "total_ops": 3,
      "total_blocks": 2,
      "ssa_values": 0,
      "functions": 0,
      "modules": 0
    },
    {
      "region_depth": 2,
      "total_ops": 3,
      "total_blocks": 2,
      "ssa_values": 0,
      "functions": 0,
      "modules": 0
    },
    {
      "region_depth": 2,
      "total_ops": 3,
      "total_blocks": 2,
      "ssa_values": 0,
      "functions": 0,
      "modules": 0
    },
    {
      "region_depth": 2,
      "total_ops": 3,
      "total_blocks": 2,
      "ssa_values": 0,
      "functions": 0,
      "modules": 0
    },
    {
      "region_depth": 2,
      "total_ops": 4,
      "total_blocks": 2,
      "ssa_values": 0,
      "functions": 0,
      "modules": 0
    },
    {
      "region_depth": 2,
      "total_ops": 3,
      "total_blocks": 2,
      "ssa_values": 0,
      "functions": 0,
      "modules": 0
    },
    {
      "region_depth": 2,
      "total_ops": 4,
      "total_blocks": 2,
      "ssa_values": 0,
      "functions": 0,
      "modules": 0
    },
    {
      "region_depth": 2,
      "total_ops": 3,
      "total_blocks": 2,
      "ssa_values": 0,
      "functions": 0,
      "modules": 0
    },
    {
      "region_depth": 3,
      "total_ops": 6,
      "total_blocks": 3,
      "ssa_values": 0,
      "functions": 0,
      "modules": 0
    },
    {
      "region_depth": 2,
      "total_ops": 3,
      "total_blocks": 2,
      "ssa_values": 0,
      "functions": 0,
      "modules": 0
    },
    {
      "region_depth": 2,
      "total_ops": 4,
      "total_blocks": 2,
      "ssa_values": 0,
      "functions": 0,
      "modules": 0
    },
    {
      "region_depth": 2,
      "total_ops": 6,
      "total_blocks": 2,
      "ssa_values": 0,
      "functions": 0,
      "modules": 0
    },
    {
      "region_depth": 2,
      "total_ops": 3,
      "total_blocks": 2,
      "ssa_values": 0,
      "functions": 0,
      "modules": 0
    },
    {
      "region_depth": 2,
      "total_ops": 3,
      "total_blocks": 2,
      "ssa_values": 0,
      "functions": 0,
      "modules": 0
    },
    {
      "region_depth": 2,
      "total_ops": 3,
      "total_blocks": 2,
      "ssa_values": 0,
      "functions": 0,
      "modules": 0
    },
    {
      "region_depth": 2,
      "total_ops": 3,
      "total_blocks": 2,
      "ssa_values": 0,
      "functions": 0,
      "modules": 0
    },
    {
      "region_depth": 2,
      "total_ops": 3,
      "total_blocks": 2,
      "ssa_values": 0,
      "functions": 0,
      "modules": 0
    },
    {
      "region_depth": 2,
      "total_ops": 3,
      "total_blocks": 2,
      "ssa_values": 0,
      "functions": 0,
      "modules": 0
    },
    {
      "region_depth": 4,
      "total_ops": 11,
      "total_blocks": 4,
      "ssa_values": 0,
      "functions": 0,
      "modules": 0
    },
    {
      "region_depth": 2,
      "total_ops": 3,
      "total_blocks": 2,
      "ssa_values": 0,
      "functions": 0,
      "modules": 0
    },
    {
      "region_depth": 2,
      "total_ops": 3,
      "total_blocks": 2,
      "ssa_values": 0,
      "functions": 0,
      "modules": 0
    },
    {
      "region_depth": 2,
      "total_ops": 4,
      "total_blocks": 2,
      "ssa_values": 0,
      "functions": 0,
      "modules": 0
    },
    {
      "region_depth": 2,
      "total_ops": 3,
      "total_blocks": 2,
      "ssa_values": 0,
      "functions": 0,
      "modules": 0
    },
    {
      "region_depth": 2,
      "total_ops": 3,
      "total_blocks": 2,
      "ssa_values": 0,
      "functions": 0,
      "modules": 0
    },
    {
      "region_depth": 2,
      "total_ops": 7,
      "total_blocks": 2,
      "ssa_values": 0,
      "functions": 0,
      "modules": 0
    },
    {
      "region_depth": 2,
      "total_ops": 4,
      "total_blocks": 2,
      "ssa_values": 0,
      "functions": 0,
      "modules": 0
    },
    {
      "region_depth": 2,
      "total_ops": 3,
      "total_blocks": 2,
      "ssa_values": 0,
      "functions": 0,
      "modules": 0
    },
    {
      "region_depth": 2,
      "total_ops": 4,
      "total_blocks": 2,
      "ssa_values": 0,
      "functions": 0,
      "modules": 0
    },
    {
      "region_depth": 2,
      "total_ops": 4,
      "total_blocks": 2,
      "ssa_values": 0,
      "functions": 0,
      "modules": 0
    },
    {
      "region_depth": 2,
      "total_ops": 3,
      "total_blocks": 2,
      "ssa_values": 0,
      "functions": 0,
      "modules": 0
    },
    {
      "region_depth": 2,
      "total_ops": 6,
      "total_blocks": 2,
      "ssa_values": 0,
      "functions": 0,
      "modules": 0
    },
    {
      "region_depth": 2,
      "total_ops": 4,
      "total_blocks": 2,
      "ssa_values": 0,
      "functions": 0,
      "modules": 0
    },
    {
      "region_depth": 2,
      "total_ops": 3,
      "total_blocks": 2,
      "ssa_values": 0,
      "functions": 0,
      "modules": 0
    },
    {
      "region_depth": 2,
      "total_ops": 3,
      "total_blocks": 2,
      "ssa_values": 0,
      "functions": 0,
      "modules": 0
    },
    {
      "region_depth": 2,
      "total_ops": 3,
      "total_blocks": 2,
      "ssa_values": 0,
      "functions": 0,
      "modules": 0
    },
    {
      "region_depth": 2,
      "total_ops": 3,
      "total_blocks": 2,
      "ssa_values": 0,
      "functions": 0,
      "modules": 0
    },
    {
      "region_depth": 2,
      "total_ops": 3,
      "total_blocks": 2,
      "ssa_values": 0,
      "functions": 0,
      "modules": 0
    },
    {
      "region_depth": 2,
      "total_ops": 3,
      "total_blocks": 2,
      "ssa_values": 0,
      "functions": 0,
      "modules": 0
    },
    {
      "region_depth": 2,
      "total_ops": 3,
      "total_blocks": 2,
      "ssa_values": 0,
      "functions": 0,
      "modules": 0
    },
    {
      "region_depth": 2,
      "total_ops": 3,
      "total_blocks": 2,
      "ssa_values": 0,
      "functions": 0,
      "modules": 0
    },
    {
      "region_depth": 2,
      "total_ops": 3,
      "total_blocks": 2,
      "ssa_values": 0,
      "functions": 0,
      "modules": 0
    },
    {
      "region_depth": 4,
      "total_ops": 12,
      "total_blocks": 4,
      "ssa_values": 0,
      "functions": 0,
      "modules": 0
    },
    {
      "region_depth": 2,
      "total_ops": 4,
      "total_blocks": 2,
      "ssa_values": 0,
      "functions": 0,
      "modules": 0
    },
    {
      "region_depth": 2,
      "total_ops": 3,
      "total_blocks": 2,
      "ssa_values": 0,
      "functions": 0,
      "modules": 0
    },
    {
      "region_depth": 2,
      "total_ops": 3,
      "total_blocks": 2,
      "ssa_values": 0,
      "functions": 0,
      "modules": 0
    },
    {
      "region_depth": 2,
      "total_ops": 3,
      "total_blocks": 2,
      "ssa_values": 0,
      "functions": 0,
      "modules": 0
    },
    {
      "region_depth": 2,
      "total_ops": 3,
      "total_blocks": 2,
      "ssa_values": 0,
      "functions": 0,
      "modules": 0
    },
    {
      "region_depth": 2,
      "total_ops": 4,
      "total_blocks": 2,
      "ssa_values": 0,
      "functions": 0,
      "modules": 0
    },
    {
      "region_depth": 2,
      "total_ops": 10,
      "total_blocks": 2,
      "ssa_values": 0,
      "functions": 0,
      "modules": 0
    },
    {
      "region_depth": 2,
      "total_ops": 4,
      "total_blocks": 2,
      "ssa_values": 0,
      "functions": 0,
      "modules": 0
    },
    {
      "region_depth": 2,
      "total_ops": 4,
      "total_blocks": 2,
      "ssa_values": 0,
      "functions": 0,
      "modules": 0
    },
    {
      "region_depth": 2,
      "total_ops": 3,
      "total_blocks": 2,
      "ssa_values": 0,
      "functions": 0,
      "modules": 0
    },
    {
      "region_depth": 2,
      "total_ops": 7,
      "total_blocks": 2,
      "ssa_values": 0,
      "functions": 0,
      "modules": 0
    },
    {
      "region_depth": 2,
      "total_ops": 3,
      "total_blocks": 2,
      "ssa_values": 0,
      "functions": 0,
      "modules": 0
    },
    {
      "region_depth": 2,
      "total_ops": 3,
      "total_blocks": 2,
      "ssa_values": 0,
      "functions": 0,
      "modules": 0
    },
    {
      "region_depth": 2,
      "total_ops": 3,
      "total_blocks": 2,
      "ssa_values": 0,
      "functions": 0,
      "modules": 0
    },
    {
      "region_depth": 2,
      "total_ops": 3,
      "total_blocks": 2,
      "ssa_values": 0,
      "functions": 0,
      "modules": 0
    },
    {
      "region_depth": 2,
      "total_ops": 3,
      "total_blocks": 2,
      "ssa_values": 0,
      "functions": 0,
      "modules": 0
    },
    {
      "region_depth": 2,
      "total_ops": 6,
      "total_blocks": 2,
      "ssa_values": 0,
      "functions": 0,
      "modules": 0
    },
    {
      "region_depth": 2,
      "total_ops": 3,
      "total_blocks": 2,
      "ssa_values": 0,
      "functions": 0,
      "modules": 0
    },
    {
      "region_depth": 2,
      "total_ops": 3,
      "total_blocks": 2,
      "ssa_values": 0,
      "functions": 0,
      "modules": 0
    },
    {
      "region_depth": 2,
      "total_ops": 3,
      "total_blocks": 2,
      "ssa_values": 0,
      "functions": 0,
      "modules": 0
    },
    {
      "region_depth": 2,
      "total_ops": 3,
      "total_blocks": 2,
      "ssa_values": 0,
      "functions": 0,
      "modules": 0
    },
    {
      "region_depth": 2,
      "total_ops": 3,
      "total_blocks": 2,
      "ssa_values": 0,
      "functions": 0,
      "modules": 0
    },
    {
      "region_depth": 2,
      "total_ops": 3,
      "total_blocks": 2,
      "ssa_values": 0,
      "functions": 0,
      "modules": 0
    },
    {
      "region_depth": 2,
      "total_ops": 3,
      "total_blocks": 2,
      "ssa_values": 0,
      "functions": 0,
      "modules": 0
    },
    {
      "region_depth": 2,
      "total_ops": 3,
      "total_blocks": 2,
      "ssa_values": 0,
      "functions": 0,
      "modules": 0
    },
    {
      "region_depth": 2,
      "total_ops": 3,
      "total_blocks": 2,
      "ssa_values": 0,
      "functions": 0,
      "modules": 0
    },
    {
      "region_depth": 2,
      "total_ops": 3,
      "total_blocks": 2,
      "ssa_values": 0,
      "functions": 0,
      "modules": 0
    },
    {
      "region_depth": 2,
      "total_ops": 4,
      "total_blocks": 2,
      "ssa_values": 0,
      "functions": 0,
      "modules": 0
    },
    {
      "region_depth": 2,
      "total_ops": 7,
      "total_blocks": 2,
      "ssa_values": 0,
      "functions": 0,
      "modules": 0
    },
    {
      "region_depth": 2,
      "total_ops": 6,
      "total_blocks": 2,
      "ssa_values": 0,
      "functions": 0,
      "modules": 0
    },
    {
      "region_depth": 2,
      "total_ops": 5,
      "total_blocks": 2,
      "ssa_values": 0,
      "functions": 0,
      "modules": 0
    },
    {
      "region_depth": 2,
      "total_ops": 3,
      "total_blocks": 2,
      "ssa_values": 0,
      "functions": 0,
      "modules": 0
    },
    {
      "region_depth": 2,
      "total_ops": 3,
      "total_blocks": 2,
      "ssa_values": 0,
      "functions": 0,
      "modules": 0
    },
    {
      "region_depth": 2,
      "total_ops": 3,
      "total_blocks": 2,
      "ssa_values": 0,
      "functions": 0,
      "modules": 0
    },
    {
      "region_depth": 2,
      "total_ops": 3,
      "total_blocks": 2,
      "ssa_values": 0,
      "functions": 0,
      "modules": 0
    },
    {
      "region_depth": 2,
      "total_ops": 3,
      "total_blocks": 2,
      "ssa_values": 0,
      "functions": 0,
      "modules": 0
    },
    {
      "region_depth": 2,
      "total_ops": 3,
      "total_blocks": 2,
      "ssa_values": 0,
      "functions": 0,
      "modules": 0
    },
    {
      "region_depth": 2,
      "total_ops": 12,
      "total_blocks": 2,
      "ssa_values": 0,
      "functions": 0,
      "modules": 0
    },
    {
      "region_depth": 2,
      "total_ops": 9,
      "total_blocks": 2,
      "ssa_values": 0,
      "functions": 0,
      "modules": 0
    },
    {
      "region_depth": 2,
      "total_ops": 4,
      "total_blocks": 2,
      "ssa_values": 0,
      "functions": 0,
      "modules": 0
    },
    {
      "region_depth": 2,
      "total_ops": 3,
      "total_blocks": 2,
      "ssa_values": 0,
      "functions": 0,
      "modules": 0
    },
    {
      "region_depth": 2,
      "total_ops": 7,
      "total_blocks": 2,
      "ssa_values": 0,
      "functions": 0,
      "modules": 0
    },
    {
      "region_depth": 2,
      "total_ops": 3,
      "total_blocks": 2,
      "ssa_values": 0,
      "functions": 0,
      "modules": 0
    },
    {
      "region_depth": 2,
      "total_ops": 3,
      "total_blocks": 2,
      "ssa_values": 0,
      "functions": 0,
      "modules": 0
    },
    {
      "region_depth": 2,
      "total_ops": 4,
      "total_blocks": 2,
      "ssa_values": 0,
      "functions": 0,
      "modules": 0
    },
    {
      "region_depth": 2,
      "total_ops": 6,
      "total_blocks": 2,
      "ssa_values": 0,
      "functions": 0,
      "modules": 0
    },
    {
      "region_depth": 2,
      "total_ops": 6,
      "total_blocks": 2,
      "ssa_values": 0,
      "functions": 0,
      "modules": 0
    },
    {
      "region_depth": 2,
      "total_ops": 4,
      "total_blocks": 2,
      "ssa_values": 0,
      "functions": 0,
      "modules": 0
    },
    {
      "region_depth": 2,
      "total_ops": 6,
      "total_blocks": 2,
      "ssa_values": 0,
      "functions": 0,
      "modules": 0
    },
    {
      "region_depth": 2,
      "total_ops": 3,
      "total_blocks": 2,
      "ssa_values": 0,
      "functions": 0,
      "modules": 0
    },
    {
      "region_depth": 2,
      "total_ops": 3,
      "total_blocks": 2,
      "ssa_values": 0,
      "functions": 0,
      "modules": 0
    },
    {
      "region_depth": 2,
      "total_ops": 6,
      "total_blocks": 2,
      "ssa_values": 0,
      "functions": 0,
      "modules": 0
    },
    {
      "region_depth": 2,
      "total_ops": 3,
      "total_blocks": 2,
      "ssa_values": 0,
      "functions": 0,
      "modules": 0
    },
    {
      "region_depth": 2,
      "total_ops": 3,
      "total_blocks": 2,
      "ssa_values": 0,
      "functions": 0,
      "modules": 0
    },
    {
      "region_depth": 2,
      "total_ops": 3,
      "total_blocks": 2,
      "ssa_values": 0,
      "functions": 0,
      "modules": 0
    },
    {
      "region_depth": 2,
      "total_ops": 3,
      "total_blocks": 2,
      "ssa_values": 0,
      "functions": 0,
      "modules": 0
    },
    {
      "region_depth": 2,
      "total_ops": 4,
      "total_blocks": 2,
      "ssa_values": 0,
      "functions": 0,
      "modules": 0
    },
    {
      "region_depth": 2,
      "total_ops": 16,
      "total_blocks": 2,
      "ssa_values": 0,
      "functions": 0,
      "modules": 0
    },
    {
      "region_depth": 2,
      "total_ops": 3,
      "total_blocks": 2,
      "ssa_values": 0,
      "functions": 0,
      "modules": 0
    },
    {
      "region_depth": 2,
      "total_ops": 3,
      "total_blocks": 2,
      "ssa_values": 0,
      "functions": 0,
      "modules": 0
    },
    {
      "region_depth": 2,
      "total_ops": 15,
      "total_blocks": 2,
      "ssa_values": 0,
      "functions": 0,
      "modules": 0
    },
    {
      "region_depth": 2,
      "total_ops": 3,
      "total_blocks": 2,
      "ssa_values": 0,
      "functions": 0,
      "modules": 0
    },
    {
      "region_depth": 2,
      "total_ops": 4,
      "total_blocks": 2,
      "ssa_values": 0,
      "functions": 0,
      "modules": 0
    },
    {
      "region_depth": 2,
      "total_ops": 4,
      "total_blocks": 2,
      "ssa_values": 0,
      "functions": 0,
      "modules": 0
    },
    {
      "region_depth": 2,
      "total_ops": 4,
      "total_blocks": 2,
      "ssa_values": 0,
      "functions": 0,
      "modules": 0
    },
    {
      "region_depth": 2,
      "total_ops": 4,
      "total_blocks": 2,
      "ssa_values": 0,
      "functions": 0,
      "modules": 0
    },
    {
      "region_depth": 2,
      "total_ops": 4,
      "total_blocks": 2,
      "ssa_values": 0,
      "functions": 0,
      "modules": 0
    },
    {
      "region_depth": 2,
      "total_ops": 3,
      "total_blocks": 2,
      "ssa_values": 0,
      "functions": 0,
      "modules": 0
    },
    {
      "region_depth": 2,
      "total_ops": 3,
      "total_blocks": 2,
      "ssa_values": 0,
      "functions": 0,
      "modules": 0
    },
    {
      "region_depth": 2,
      "total_ops": 3,
      "total_blocks": 2,
      "ssa_values": 0,
      "functions": 0,
      "modules": 0
    },
    {
      "region_depth": 2,
      "total_ops": 3,
      "total_blocks": 2,
      "ssa_values": 0,
      "functions": 0,
      "modules": 0
    },
    {
      "region_depth": 2,
      "total_ops": 3,
      "total_blocks": 2,
      "ssa_values": 0,
      "functions": 0,
      "modules": 0
    },
    {
      "region_depth": 2,
      "total_ops": 4,
      "total_blocks": 2,
      "ssa_values": 0,
      "functions": 0,
      "modules": 0
    },
    {
      "region_depth": 2,
      "total_ops": 4,
      "total_blocks": 2,
      "ssa_values": 0,
      "functions": 0,
      "modules": 0
    },
    {
      "region_depth": 2,
      "total_ops": 4,
      "total_blocks": 2,
      "ssa_values": 0,
      "functions": 0,
      "modules": 0
    },
    {
      "region_depth": 2,
      "total_ops": 3,
      "total_blocks": 2,
      "ssa_values": 0,
      "functions": 0,
      "modules": 0
    },
    {
      "region_depth": 2,
      "total_ops": 4,
      "total_blocks": 2,
      "ssa_values": 0,
      "functions": 0,
      "modules": 0
    },
    {
      "region_depth": 2,
      "total_ops": 5,
      "total_blocks": 2,
      "ssa_values": 0,
      "functions": 0,
      "modules": 0
    },
    {
      "region_depth": 2,
      "total_ops": 3,
      "total_blocks": 2,
      "ssa_values": 0,
      "functions": 0,
      "modules": 0
    },
    {
      "region_depth": 2,
      "total_ops": 3,
      "total_blocks": 2,
      "ssa_values": 0,
      "functions": 0,
      "modules": 0
    },
    {
      "region_depth": 2,
      "total_ops": 23,
      "total_blocks": 2,
      "ssa_values": 0,
      "functions": 0,
      "modules": 0
    },
    {
      "region_depth": 2,
      "total_ops": 3,
      "total_blocks": 2,
      "ssa_values": 0,
      "functions": 0,
      "modules": 0
    },
    {
      "region_depth": 3,
      "total_ops": 5,
      "total_blocks": 4,
      "ssa_values": 0,
      "functions": 0,
      "modules": 0
    },
    {
      "region_depth": 2,
      "total_ops": 5,
      "total_blocks": 2,
      "ssa_values": 0,
      "functions": 0,
      "modules": 0
    },
    {
      "region_depth": 2,
      "total_ops": 3,
      "total_blocks": 2,
      "ssa_values": 0,
      "functions": 0,
      "modules": 0
    },
    {
      "region_depth": 2,
      "total_ops": 3,
      "total_blocks": 2,
      "ssa_values": 0,
      "functions": 0,
      "modules": 0
    },
    {
      "region_depth": 2,
      "total_ops": 4,
      "total_blocks": 2,
      "ssa_values": 0,
      "functions": 0,
      "modules": 0
    },
    {
      "region_depth": 2,
      "total_ops": 4,
      "total_blocks": 2,
      "ssa_values": 0,
      "functions": 0,
      "modules": 0
    },
    {
      "region_depth": 2,
      "total_ops": 4,
      "total_blocks": 2,
      "ssa_values": 0,
      "functions": 0,
      "modules": 0
    },
    {
      "region_depth": 2,
      "total_ops": 3,
      "total_blocks": 2,
      "ssa_values": 0,
      "functions": 0,
      "modules": 0
    },
    {
      "region_depth": 2,
      "total_ops": 3,
      "total_blocks": 2,
      "ssa_values": 0,
      "functions": 0,
      "modules": 0
    },
    {
      "region_depth": 2,
      "total_ops": 3,
      "total_blocks": 2,
      "ssa_values": 0,
      "functions": 0,
      "modules": 0
    },
    {
      "region_depth": 2,
      "total_ops": 3,
      "total_blocks": 2,
      "ssa_values": 0,
      "functions": 0,
      "modules": 0
    },
    {
      "region_depth": 2,
      "total_ops": 4,
      "total_blocks": 2,
      "ssa_values": 0,
      "functions": 0,
      "modules": 0
    },
    {
      "region_depth": 2,
      "total_ops": 3,
      "total_blocks": 2,
      "ssa_values": 0,
      "functions": 0,
      "modules": 0
    },
    {
      "region_depth": 2,
      "total_ops": 3,
      "total_blocks": 2,
      "ssa_values": 0,
      "functions": 0,
      "modules": 0
    },
    {
      "region_depth": 2,
      "total_ops": 4,
      "total_blocks": 2,
      "ssa_values": 0,
      "functions": 0,
      "modules": 0
    },
    {
      "region_depth": 2,
      "total_ops": 4,
      "total_blocks": 2,
      "ssa_values": 0,
      "functions": 0,
      "modules": 0
    },
    {
      "region_depth": 2,
      "total_ops": 3,
      "total_blocks": 2,
      "ssa_values": 0,
      "functions": 0,
      "modules": 0
    },
    {
      "region_depth": 2,
      "total_ops": 3,
      "total_blocks": 2,
      "ssa_values": 0,
      "functions": 0,
      "modules": 0
    },
    {
      "region_depth": 2,
      "total_ops": 3,
      "total_blocks": 2,
      "ssa_values": 0,
      "functions": 0,
      "modules": 0
    },
    {
      "region_depth": 2,
      "total_ops": 5,
      "total_blocks": 2,
      "ssa_values": 0,
      "functions": 0,
      "modules": 0
    },
    {
      "region_depth": 2,
      "total_ops": 8,
      "total_blocks": 2,
      "ssa_values": 0,
      "functions": 0,
      "modules": 0
    },
    {
      "region_depth": 2,
      "total_ops": 3,
      "total_blocks": 2,
      "ssa_values": 0,
      "functions": 0,
      "modules": 0
    },
    {
      "region_depth": 2,
      "total_ops": 3,
      "total_blocks": 2,
      "ssa_values": 0,
      "functions": 0,
      "modules": 0
    },
    {
      "region_depth": 2,
      "total_ops": 3,
      "total_blocks": 2,
      "ssa_values": 0,
      "functions": 0,
      "modules": 0
    },
    {
      "region_depth": 2,
      "total_ops": 3,
      "total_blocks": 2,
      "ssa_values": 0,
      "functions": 0,
      "modules": 0
    },
    {
      "region_depth": 2,
      "total_ops": 4,
      "total_blocks": 2,
      "ssa_values": 0,
      "functions": 0,
      "modules": 0
    },
    {
      "region_depth": 2,
      "total_ops": 4,
      "total_blocks": 2,
      "ssa_values": 0,
      "functions": 0,
      "modules": 0
    },
    {
      "region_depth": 2,
      "total_ops": 3,
      "total_blocks": 2,
      "ssa_values": 0,
      "functions": 0,
      "modules": 0
    },
    {
      "region_depth": 2,
      "total_ops": 3,
      "total_blocks": 2,
      "ssa_values": 0,
      "functions": 0,
      "modules": 0
    },
    {
      "region_depth": 2,
      "total_ops": 3,
      "total_blocks": 2,
      "ssa_values": 0,
      "functions": 0,
      "modules": 0
    },
    {
      "region_depth": 2,
      "total_ops": 8,
      "total_blocks": 2,
      "ssa_values": 0,
      "functions": 0,
      "modules": 0
    },
    {
      "region_depth": 2,
      "total_ops": 6,
      "total_blocks": 2,
      "ssa_values": 0,
      "functions": 0,
      "modules": 0
    },
    {
      "region_depth": 2,
      "total_ops": 4,
      "total_blocks": 2,
      "ssa_values": 0,
      "functions": 0,
      "modules": 0
    },
    {
      "region_depth": 2,
      "total_ops": 3,
      "total_blocks": 2,
      "ssa_values": 0,
      "functions": 0,
      "modules": 0
    },
    {
      "region_depth": 2,
      "total_ops": 3,
      "total_blocks": 2,
      "ssa_values": 0,
      "functions": 0,
      "modules": 0
    },
    {
      "region_depth": 2,
      "total_ops": 3,
      "total_blocks": 2,
      "ssa_values": 0,
      "functions": 0,
      "modules": 0
    },
    {
      "region_depth": 2,
      "total_ops": 3,
      "total_blocks": 2,
      "ssa_values": 0,
      "functions": 0,
      "modules": 0
    },
    {
      "region_depth": 2,
      "total_ops": 3,
      "total_blocks": 2,
      "ssa_values": 0,
      "functions": 0,
      "modules": 0
    },
    {
      "region_depth": 2,
      "total_ops": 3,
      "total_blocks": 2,
      "ssa_values": 0,
      "functions": 0,
      "modules": 0
    },
    {
      "region_depth": 2,
      "total_ops": 3,
      "total_blocks": 2,
      "ssa_values": 0,
      "functions": 0,
      "modules": 0
    },
    {
      "region_depth": 2,
      "total_ops": 4,
      "total_blocks": 2,
      "ssa_values": 0,
      "functions": 0,
      "modules": 0
    },
    {
      "region_depth": 2,
      "total_ops": 3,
      "total_blocks": 2,
      "ssa_values": 0,
      "functions": 0,
      "modules": 0
    },
    {
      "region_depth": 2,
      "total_ops": 6,
      "total_blocks": 2,
      "ssa_values": 0,
      "functions": 0,
      "modules": 0
    },
    {
      "region_depth": 2,
      "total_ops": 3,
      "total_blocks": 2,
      "ssa_values": 0,
      "functions": 0,
      "modules": 0
    },
    {
      "region_depth": 2,
      "total_ops": 3,
      "total_blocks": 2,
      "ssa_values": 0,
      "functions": 0,
      "modules": 0
    },
    {
      "region_depth": 2,
      "total_ops": 3,
      "total_blocks": 2,
      "ssa_values": 0,
      "functions": 0,
      "modules": 0
    },
    {
      "region_depth": 2,
      "total_ops": 3,
      "total_blocks": 2,
      "ssa_values": 0,
      "functions": 0,
      "modules": 0
    },
    {
      "region_depth": 2,
      "total_ops": 3,
      "total_blocks": 2,
      "ssa_values": 0,
      "functions": 0,
      "modules": 0
    },
    {
      "region_depth": 2,
      "total_ops": 6,
      "total_blocks": 2,
      "ssa_values": 0,
      "functions": 0,
      "modules": 0
    },
    {
      "region_depth": 2,
      "total_ops": 6,
      "total_blocks": 2,
      "ssa_values": 0,
      "functions": 0,
      "modules": 0
    },
    {
      "region_depth": 2,
      "total_ops": 3,
      "total_blocks": 2,
      "ssa_values": 0,
      "functions": 0,
      "modules": 0
    },
    {
      "region_depth": 2,
      "total_ops": 3,
      "total_blocks": 2,
      "ssa_values": 0,
      "functions": 0,
      "modules": 0
    },
    {
      "region_depth": 2,
      "total_ops": 4,
      "total_blocks": 2,
      "ssa_values": 0,
      "functions": 0,
      "modules": 0
    },
    {
      "region_depth": 2,
      "total_ops": 3,
      "total_blocks": 2,
      "ssa_values": 0,
      "functions": 0,
      "modules": 0
    },
    {
      "region_depth": 2,
      "total_ops": 3,
      "total_blocks": 2,
      "ssa_values": 0,
      "functions": 0,
      "modules": 0
    },
    {
      "region_depth": 2,
      "total_ops": 4,
      "total_blocks": 2,
      "ssa_values": 0,
      "functions": 0,
      "modules": 0
    },
    {
      "region_depth": 2,
      "total_ops": 3,
      "total_blocks": 2,
      "ssa_values": 0,
      "functions": 0,
      "modules": 0
    },
    {
      "region_depth": 2,
      "total_ops": 4,
      "total_blocks": 2,
      "ssa_values": 0,
      "functions": 0,
      "modules": 0
    },
    {
      "region_depth": 2,
      "total_ops": 4,
      "total_blocks": 2,
      "ssa_values": 0,
      "functions": 0,
      "modules": 0
    },
    {
      "region_depth": 2,
      "total_ops": 4,
      "total_blocks": 2,
      "ssa_values": 0,
      "functions": 0,
      "modules": 0
    },
    {
      "region_depth": 2,
      "total_ops": 6,
      "total_blocks": 3,
      "ssa_values": 0,
      "functions": 0,
      "modules": 0
    },
    {
      "region_depth": 2,
      "total_ops": 4,
      "total_blocks": 2,
      "ssa_values": 0,
      "functions": 0,
      "modules": 0
    },
    {
      "region_depth": 2,
      "total_ops": 3,
      "total_blocks": 2,
      "ssa_values": 0,
      "functions": 0,
      "modules": 0
    },
    {
      "region_depth": 2,
      "total_ops": 7,
      "total_blocks": 2,
      "ssa_values": 0,
      "functions": 0,
      "modules": 0
    },
    {
      "region_depth": 2,
      "total_ops": 4,
      "total_blocks": 2,
      "ssa_values": 0,
      "functions": 0,
      "modules": 0
    },
    {
      "region_depth": 2,
      "total_ops": 3,
      "total_blocks": 2,
      "ssa_values": 0,
      "functions": 0,
      "modules": 0
    },
    {
      "region_depth": 2,
      "total_ops": 3,
      "total_blocks": 2,
      "ssa_values": 0,
      "functions": 0,
      "modules": 0
    },
    {
      "region_depth": 2,
      "total_ops": 3,
      "total_blocks": 2,
      "ssa_values": 0,
      "functions": 0,
      "modules": 0
    },
    {
      "region_depth": 2,
      "total_ops": 3,
      "total_blocks": 2,
      "ssa_values": 0,
      "functions": 0,
      "modules": 0
    },
    {
      "region_depth": 2,
      "total_ops": 4,
      "total_blocks": 2,
      "ssa_values": 0,
      "functions": 0,
      "modules": 0
    },
    {
      "region_depth": 2,
      "total_ops": 4,
      "total_blocks": 2,
      "ssa_values": 0,
      "functions": 0,
      "modules": 0
    },
    {
      "region_depth": 2,
      "total_ops": 3,
      "total_blocks": 2,
      "ssa_values": 0,
      "functions": 0,
      "modules": 0
    },
    {
      "region_depth": 2,
      "total_ops": 3,
      "total_blocks": 2,
      "ssa_values": 0,
      "functions": 0,
      "modules": 0
    },
    {
      "region_depth": 2,
      "total_ops": 4,
      "total_blocks": 2,
      "ssa_values": 0,
      "functions": 0,
      "modules": 0
    },
    {
      "region_depth": 2,
      "total_ops": 3,
      "total_blocks": 2,
      "ssa_values": 0,
      "functions": 0,
      "modules": 0
    },
    {
      "region_depth": 2,
      "total_ops": 6,
      "total_blocks": 2,
      "ssa_values": 0,
      "functions": 0,
      "modules": 0
    },
    {
      "region_depth": 2,
      "total_ops": 8,
      "total_blocks": 2,
      "ssa_values": 0,
      "functions": 0,
      "modules": 0
    },
    {
      "region_depth": 2,
      "total_ops": 3,
      "total_blocks": 2,
      "ssa_values": 0,
      "functions": 0,
      "modules": 0
    },
    {
      "region_depth": 2,
      "total_ops": 4,
      "total_blocks": 2,
      "ssa_values": 0,
      "functions": 0,
      "modules": 0
    },
    {
      "region_depth": 2,
      "total_ops": 3,
      "total_blocks": 2,
      "ssa_values": 0,
      "functions": 0,
      "modules": 0
    },
    {
      "region_depth": 2,
      "total_ops": 5,
      "total_blocks": 2,
      "ssa_values": 0,
      "functions": 0,
      "modules": 0
    },
    {
      "region_depth": 2,
      "total_ops": 3,
      "total_blocks": 2,
      "ssa_values": 0,
      "functions": 0,
      "modules": 0
    },
    {
      "region_depth": 2,
      "total_ops": 3,
      "total_blocks": 2,
      "ssa_values": 0,
      "functions": 0,
      "modules": 0
    },
    {
      "region_depth": 2,
      "total_ops": 3,
      "total_blocks": 2,
      "ssa_values": 0,
      "functions": 0,
      "modules": 0
    },
    {
      "region_depth": 2,
      "total_ops": 3,
      "total_blocks": 2,
      "ssa_values": 0,
      "functions": 0,
      "modules": 0
    },
    {
      "region_depth": 2,
      "total_ops": 3,
      "total_blocks": 2,
      "ssa_values": 0,
      "functions": 0,
      "modules": 0
    },
    {
      "region_depth": 2,
      "total_ops": 3,
      "total_blocks": 2,
      "ssa_values": 0,
      "functions": 0,
      "modules": 0
    },
    {
      "region_depth": 2,
      "total_ops": 3,
      "total_blocks": 2,
      "ssa_values": 0,
      "functions": 0,
      "modules": 0
    },
    {
      "region_depth": 2,
      "total_ops": 4,
      "total_blocks": 2,
      "ssa_values": 0,
      "functions": 0,
      "modules": 0
    },
    {
      "region_depth": 2,
      "total_ops": 3,
      "total_blocks": 2,
      "ssa_values": 0,
      "functions": 0,
      "modules": 0
    },
    {
      "region_depth": 2,
      "total_ops": 5,
      "total_blocks": 2,
      "ssa_values": 0,
      "functions": 0,
      "modules": 0
    },
    {
      "region_depth": 2,
      "total_ops": 3,
      "total_blocks": 2,
      "ssa_values": 0,
      "functions": 0,
      "modules": 0
    },
    {
      "region_depth": 2,
      "total_ops": 3,
      "total_blocks": 2,
      "ssa_values": 0,
      "functions": 0,
      "modules": 0
    },
    {
      "region_depth": 2,
      "total_ops": 3,
      "total_blocks": 2,
      "ssa_values": 0,
      "functions": 0,
      "modules": 0
    },
    {
      "region_depth": 2,
      "total_ops": 3,
      "total_blocks": 2,
      "ssa_values": 0,
      "functions": 0,
      "modules": 0
    },
    {
      "region_depth": 2,
      "total_ops": 3,
      "total_blocks": 2,
      "ssa_values": 0,
      "functions": 0,
      "modules": 0
    },
    {
      "region_depth": 2,
      "total_ops": 5,
      "total_blocks": 2,
      "ssa_values": 0,
      "functions": 0,
      "modules": 0
    },
    {
      "region_depth": 2,
      "total_ops": 3,
      "total_blocks": 2,
      "ssa_values": 0,
      "functions": 0,
      "modules": 0
    },
    {
      "region_depth": 2,
      "total_ops": 5,
      "total_blocks": 2,
      "ssa_values": 0,
      "functions": 0,
      "modules": 0
    },
    {
      "region_depth": 2,
      "total_ops": 3,
      "total_blocks": 2,
      "ssa_values": 0,
      "functions": 0,
      "modules": 0
    },
    {
      "region_depth": 2,
      "total_ops": 3,
      "total_blocks": 2,
      "ssa_values": 0,
      "functions": 0,
      "modules": 0
    },
    {
      "region_depth": 2,
      "total_ops": 6,
      "total_blocks": 2,
      "ssa_values": 0,
      "functions": 0,
      "modules": 0
    },
    {
      "region_depth": 2,
      "total_ops": 3,
      "total_blocks": 2,
      "ssa_values": 0,
      "functions": 0,
      "modules": 0
    },
    {
      "region_depth": 2,
      "total_ops": 3,
      "total_blocks": 2,
      "ssa_values": 0,
      "functions": 0,
      "modules": 0
    },
    {
      "region_depth": 2,
      "total_ops": 3,
      "total_blocks": 2,
      "ssa_values": 0,
      "functions": 0,
      "modules": 0
    },
    {
      "region_depth": 2,
      "total_ops": 3,
      "total_blocks": 2,
      "ssa_values": 0,
      "functions": 0,
      "modules": 0
    },
    {
      "region_depth": 2,
      "total_ops": 3,
      "total_blocks": 2,
      "ssa_values": 0,
      "functions": 0,
      "modules": 0
    },
    {
      "region_depth": 2,
      "total_ops": 4,
      "total_blocks": 2,
      "ssa_values": 0,
      "functions": 0,
      "modules": 0
    },
    {
      "region_depth": 2,
      "total_ops": 4,
      "total_blocks": 2,
      "ssa_values": 0,
      "functions": 0,
      "modules": 0
    },
    {
      "region_depth": 2,
      "total_ops": 4,
      "total_blocks": 2,
      "ssa_values": 0,
      "functions": 0,
      "modules": 0
    },
    {
      "region_depth": 2,
      "total_ops": 3,
      "total_blocks": 2,
      "ssa_values": 0,
      "functions": 0,
      "modules": 0
    },
    {
      "region_depth": 2,
      "total_ops": 5,
      "total_blocks": 2,
      "ssa_values": 0,
      "functions": 0,
      "modules": 0
    },
    {
      "region_depth": 2,
      "total_ops": 3,
      "total_blocks": 2,
      "ssa_values": 0,
      "functions": 0,
      "modules": 0
    },
    {
      "region_depth": 2,
      "total_ops": 3,
      "total_blocks": 2,
      "ssa_values": 0,
      "functions": 0,
      "modules": 0
    },
    {
      "region_depth": 2,
      "total_ops": 3,
      "total_blocks": 2,
      "ssa_values": 0,
      "functions": 0,
      "modules": 0
    },
    {
      "region_depth": 2,
      "total_ops": 3,
      "total_blocks": 2,
      "ssa_values": 0,
      "functions": 0,
      "modules": 0
    },
    {
      "region_depth": 2,
      "total_ops": 4,
      "total_blocks": 2,
      "ssa_values": 0,
      "functions": 0,
      "modules": 0
    },
    {
      "region_depth": 2,
      "total_ops": 3,
      "total_blocks": 2,
      "ssa_values": 0,
      "functions": 0,
      "modules": 0
    },
    {
      "region_depth": 2,
      "total_ops": 3,
      "total_blocks": 2,
      "ssa_values": 0,
      "functions": 0,
      "modules": 0
    },
    {
      "region_depth": 2,
      "total_ops": 4,
      "total_blocks": 2,
      "ssa_values": 0,
      "functions": 0,
      "modules": 0
    },
    {
      "region_depth": 2,
      "total_ops": 4,
      "total_blocks": 2,
      "ssa_values": 0,
      "functions": 0,
      "modules": 0
    },
    {
      "region_depth": 2,
      "total_ops": 5,
      "total_blocks": 2,
      "ssa_values": 0,
      "functions": 0,
      "modules": 0
    },
    {
      "region_depth": 2,
      "total_ops": 3,
      "total_blocks": 2,
      "ssa_values": 0,
      "functions": 0,
      "modules": 0
    },
    {
      "region_depth": 2,
      "total_ops": 7,
      "total_blocks": 2,
      "ssa_values": 0,
      "functions": 0,
      "modules": 0
    },
    {
      "region_depth": 2,
      "total_ops": 3,
      "total_blocks": 2,
      "ssa_values": 0,
      "functions": 0,
      "modules": 0
    },
    {
      "region_depth": 2,
      "total_ops": 3,
      "total_blocks": 2,
      "ssa_values": 0,
      "functions": 0,
      "modules": 0
    },
    {
      "region_depth": 2,
      "total_ops": 3,
      "total_blocks": 2,
      "ssa_values": 0,
      "functions": 0,
      "modules": 0
    },
    {
      "region_depth": 2,
      "total_ops": 3,
      "total_blocks": 2,
      "ssa_values": 0,
      "functions": 0,
      "modules": 0
    },
    {
      "region_depth": 2,
      "total_ops": 3,
      "total_blocks": 2,
      "ssa_values": 0,
      "functions": 0,
      "modules": 0
    },
    {
      "region_depth": 2,
      "total_ops": 9,
      "total_blocks": 2,
      "ssa_values": 0,
      "functions": 0,
      "modules": 0
    },
    {
      "region_depth": 2,
      "total_ops": 4,
      "total_blocks": 2,
      "ssa_values": 0,
      "functions": 0,
      "modules": 0
    },
    {
      "region_depth": 2,
      "total_ops": 4,
      "total_blocks": 2,
      "ssa_values": 0,
      "functions": 0,
      "modules": 0
    },
    {
      "region_depth": 2,
      "total_ops": 3,
      "total_blocks": 2,
      "ssa_values": 0,
      "functions": 0,
      "modules": 0
    },
    {
      "region_depth": 2,
      "total_ops": 6,
      "total_blocks": 2,
      "ssa_values": 0,
      "functions": 0,
      "modules": 0
    },
    {
      "region_depth": 2,
      "total_ops": 3,
      "total_blocks": 2,
      "ssa_values": 0,
      "functions": 0,
      "modules": 0
    },
    {
      "region_depth": 2,
      "total_ops": 3,
      "total_blocks": 2,
      "ssa_values": 0,
      "functions": 0,
      "modules": 0
    },
    {
      "region_depth": 2,
      "total_ops": 5,
      "total_blocks": 2,
      "ssa_values": 0,
      "functions": 0,
      "modules": 0
    },
    {
      "region_depth": 2,
      "total_ops": 4,
      "total_blocks": 2,
      "ssa_values": 0,
      "functions": 0,
      "modules": 0
    },
    {
      "region_depth": 2,
      "total_ops": 3,
      "total_blocks": 2,
      "ssa_values": 0,
      "functions": 0,
      "modules": 0
    },
    {
      "region_depth": 2,
      "total_ops": 6,
      "total_blocks": 2,
      "ssa_values": 0,
      "functions": 0,
      "modules": 0
    },
    {
      "region_depth": 2,
      "total_ops": 3,
      "total_blocks": 2,
      "ssa_values": 0,
      "functions": 0,
      "modules": 0
    },
    {
      "region_depth": 2,
      "total_ops": 4,
      "total_blocks": 2,
      "ssa_values": 0,
      "functions": 0,
      "modules": 0
    },
    {
      "region_depth": 2,
      "total_ops": 6,
      "total_blocks": 2,
      "ssa_values": 0,
      "functions": 0,
      "modules": 0
    },
    {
      "region_depth": 2,
      "total_ops": 8,
      "total_blocks": 2,
      "ssa_values": 0,
      "functions": 0,
      "modules": 0
    },
    {
      "region_depth": 2,
      "total_ops": 3,
      "total_blocks": 2,
      "ssa_values": 0,
      "functions": 0,
      "modules": 0
    },
    {
      "region_depth": 2,
      "total_ops": 4,
      "total_blocks": 2,
      "ssa_values": 0,
      "functions": 0,
      "modules": 0
    },
    {
      "region_depth": 2,
      "total_ops": 3,
      "total_blocks": 2,
      "ssa_values": 0,
      "functions": 0,
      "modules": 0
    },
    {
      "region_depth": 2,
      "total_ops": 3,
      "total_blocks": 2,
      "ssa_values": 0,
      "functions": 0,
      "modules": 0
    },
    {
      "region_depth": 2,
      "total_ops": 3,
      "total_blocks": 2,
      "ssa_values": 0,
      "functions": 0,
      "modules": 0
    },
    {
      "region_depth": 2,
      "total_ops": 6,
      "total_blocks": 2,
      "ssa_values": 0,
      "functions": 0,
      "modules": 0
    },
    {
      "region_depth": 2,
      "total_ops": 3,
      "total_blocks": 2,
      "ssa_values": 0,
      "functions": 0,
      "modules": 0
    },
    {
      "region_depth": 2,
      "total_ops": 5,
      "total_blocks": 2,
      "ssa_values": 0,
      "functions": 0,
      "modules": 0
    },
    {
      "region_depth": 2,
      "total_ops": 3,
      "total_blocks": 2,
      "ssa_values": 0,
      "functions": 0,
      "modules": 0
    },
    {
      "region_depth": 2,
      "total_ops": 4,
      "total_blocks": 2,
      "ssa_values": 0,
      "functions": 0,
      "modules": 0
    },
    {
      "region_depth": 2,
      "total_ops": 3,
      "total_blocks": 2,
      "ssa_values": 0,
      "functions": 0,
      "modules": 0
    },
    {
      "region_depth": 2,
      "total_ops": 3,
      "total_blocks": 2,
      "ssa_values": 0,
      "functions": 0,
      "modules": 0
    },
    {
      "region_depth": 2,
      "total_ops": 3,
      "total_blocks": 2,
      "ssa_values": 0,
      "functions": 0,
      "modules": 0
    },
    {
      "region_depth": 2,
      "total_ops": 4,
      "total_blocks": 2,
      "ssa_values": 0,
      "functions": 0,
      "modules": 0
    },
    {
      "region_depth": 2,
      "total_ops": 5,
      "total_blocks": 2,
      "ssa_values": 0,
      "functions": 0,
      "modules": 0
    },
    {
      "region_depth": 2,
      "total_ops": 4,
      "total_blocks": 2,
      "ssa_values": 0,
      "functions": 0,
      "modules": 0
    },
    {
      "region_depth": 2,
      "total_ops": 3,
      "total_blocks": 2,
      "ssa_values": 0,
      "functions": 0,
      "modules": 0
    },
    {
      "region_depth": 2,
      "total_ops": 3,
      "total_blocks": 2,
      "ssa_values": 0,
      "functions": 0,
      "modules": 0
    },
    {
      "region_depth": 2,
      "total_ops": 3,
      "total_blocks": 2,
      "ssa_values": 0,
      "functions": 0,
      "modules": 0
    },
    {
      "region_depth": 2,
      "total_ops": 3,
      "total_blocks": 2,
      "ssa_values": 0,
      "functions": 0,
      "modules": 0
    },
    {
      "region_depth": 2,
      "total_ops": 3,
      "total_blocks": 2,
      "ssa_values": 0,
      "functions": 0,
      "modules": 0
    },
    {
      "region_depth": 2,
      "total_ops": 4,
      "total_blocks": 2,
      "ssa_values": 0,
      "functions": 0,
      "modules": 0
    },
    {
      "region_depth": 2,
      "total_ops": 3,
      "total_blocks": 2,
      "ssa_values": 0,
      "functions": 0,
      "modules": 0
    },
    {
      "region_depth": 3,
      "total_ops": 8,
      "total_blocks": 3,
      "ssa_values": 0,
      "functions": 0,
      "modules": 0
    },
    {
      "region_depth": 2,
      "total_ops": 4,
      "total_blocks": 2,
      "ssa_values": 0,
      "functions": 0,
      "modules": 0
    },
    {
      "region_depth": 2,
      "total_ops": 5,
      "total_blocks": 2,
      "ssa_values": 0,
      "functions": 0,
      "modules": 0
    },
    {
      "region_depth": 2,
      "total_ops": 3,
      "total_blocks": 2,
      "ssa_values": 0,
      "functions": 0,
      "modules": 0
    },
    {
      "region_depth": 2,
      "total_ops": 3,
      "total_blocks": 2,
      "ssa_values": 0,
      "functions": 0,
      "modules": 0
    },
    {
      "region_depth": 2,
      "total_ops": 5,
      "total_blocks": 2,
      "ssa_values": 0,
      "functions": 0,
      "modules": 0
    },
    {
      "region_depth": 2,
      "total_ops": 3,
      "total_blocks": 2,
      "ssa_values": 0,
      "functions": 0,
      "modules": 0
    },
    {
      "region_depth": 2,
      "total_ops": 4,
      "total_blocks": 2,
      "ssa_values": 0,
      "functions": 0,
      "modules": 0
    },
    {
      "region_depth": 2,
      "total_ops": 3,
      "total_blocks": 2,
      "ssa_values": 0,
      "functions": 0,
      "modules": 0
    },
    {
      "region_depth": 2,
      "total_ops": 3,
      "total_blocks": 2,
      "ssa_values": 0,
      "functions": 0,
      "modules": 0
    },
    {
      "region_depth": 2,
      "total_ops": 3,
      "total_blocks": 2,
      "ssa_values": 0,
      "functions": 0,
      "modules": 0
    },
    {
      "region_depth": 2,
      "total_ops": 3,
      "total_blocks": 2,
      "ssa_values": 0,
      "functions": 0,
      "modules": 0
    },
    {
      "region_depth": 2,
      "total_ops": 3,
      "total_blocks": 2,
      "ssa_values": 0,
      "functions": 0,
      "modules": 0
    },
    {
      "region_depth": 2,
      "total_ops": 3,
      "total_blocks": 2,
      "ssa_values": 0,
      "functions": 0,
      "modules": 0
    },
    {
      "region_depth": 2,
      "total_ops": 3,
      "total_blocks": 2,
      "ssa_values": 0,
      "functions": 0,
      "modules": 0
    },
    {
      "region_depth": 2,
      "total_ops": 3,
      "total_blocks": 2,
      "ssa_values": 0,
      "functions": 0,
      "modules": 0
    },
    {
      "region_depth": 2,
      "total_ops": 4,
      "total_blocks": 2,
      "ssa_values": 0,
      "functions": 0,
      "modules": 0
    },
    {
      "region_depth": 2,
      "total_ops": 3,
      "total_blocks": 2,
      "ssa_values": 0,
      "functions": 0,
      "modules": 0
    },
    {
      "region_depth": 2,
      "total_ops": 3,
      "total_blocks": 2,
      "ssa_values": 0,
      "functions": 0,
      "modules": 0
    },
    {
      "region_depth": 2,
      "total_ops": 3,
      "total_blocks": 2,
      "ssa_values": 0,
      "functions": 0,
      "modules": 0
    },
    {
      "region_depth": 2,
      "total_ops": 6,
      "total_blocks": 2,
      "ssa_values": 0,
      "functions": 0,
      "modules": 0
    },
    {
      "region_depth": 2,
      "total_ops": 3,
      "total_blocks": 2,
      "ssa_values": 0,
      "functions": 0,
      "modules": 0
    },
    {
      "region_depth": 2,
      "total_ops": 3,
      "total_blocks": 2,
      "ssa_values": 0,
      "functions": 0,
      "modules": 0
    },
    {
      "region_depth": 3,
      "total_ops": 12,
      "total_blocks": 3,
      "ssa_values": 0,
      "functions": 0,
      "modules": 0
    },
    {
      "region_depth": 2,
      "total_ops": 3,
      "total_blocks": 2,
      "ssa_values": 0,
      "functions": 0,
      "modules": 0
    },
    {
      "region_depth": 2,
      "total_ops": 3,
      "total_blocks": 2,
      "ssa_values": 0,
      "functions": 0,
      "modules": 0
    },
    {
      "region_depth": 2,
      "total_ops": 3,
      "total_blocks": 2,
      "ssa_values": 0,
      "functions": 0,
      "modules": 0
    },
    {
      "region_depth": 2,
      "total_ops": 4,
      "total_blocks": 2,
      "ssa_values": 0,
      "functions": 0,
      "modules": 0
    },
    {
      "region_depth": 2,
      "total_ops": 3,
      "total_blocks": 2,
      "ssa_values": 0,
      "functions": 0,
      "modules": 0
    },
    {
      "region_depth": 2,
      "total_ops": 3,
      "total_blocks": 2,
      "ssa_values": 0,
      "functions": 0,
      "modules": 0
    },
    {
      "region_depth": 2,
      "total_ops": 3,
      "total_blocks": 2,
      "ssa_values": 0,
      "functions": 0,
      "modules": 0
    },
    {
      "region_depth": 2,
      "total_ops": 6,
      "total_blocks": 2,
      "ssa_values": 0,
      "functions": 0,
      "modules": 0
    },
    {
      "region_depth": 2,
      "total_ops": 3,
      "total_blocks": 2,
      "ssa_values": 0,
      "functions": 0,
      "modules": 0
    },
    {
      "region_depth": 2,
      "total_ops": 3,
      "total_blocks": 2,
      "ssa_values": 0,
      "functions": 0,
      "modules": 0
    },
    {
      "region_depth": 2,
      "total_ops": 3,
      "total_blocks": 2,
      "ssa_values": 0,
      "functions": 0,
      "modules": 0
    },
    {
      "region_depth": 2,
      "total_ops": 3,
      "total_blocks": 2,
      "ssa_values": 0,
      "functions": 0,
      "modules": 0
    },
    {
      "region_depth": 2,
      "total_ops": 4,
      "total_blocks": 2,
      "ssa_values": 0,
      "functions": 0,
      "modules": 0
    },
    {
      "region_depth": 2,
      "total_ops": 4,
      "total_blocks": 2,
      "ssa_values": 0,
      "functions": 0,
      "modules": 0
    },
    {
      "region_depth": 2,
      "total_ops": 4,
      "total_blocks": 2,
      "ssa_values": 0,
      "functions": 0,
      "modules": 0
    },
    {
      "region_depth": 2,
      "total_ops": 5,
      "total_blocks": 2,
      "ssa_values": 0,
      "functions": 0,
      "modules": 0
    },
    {
      "region_depth": 2,
      "total_ops": 5,
      "total_blocks": 2,
      "ssa_values": 0,
      "functions": 0,
      "modules": 0
    },
    {
      "region_depth": 3,
      "total_ops": 10,
      "total_blocks": 4,
      "ssa_values": 0,
      "functions": 0,
      "modules": 0
    },
    {
      "region_depth": 2,
      "total_ops": 7,
      "total_blocks": 2,
      "ssa_values": 0,
      "functions": 0,
      "modules": 0
    },
    {
      "region_depth": 2,
      "total_ops": 3,
      "total_blocks": 2,
      "ssa_values": 0,
      "functions": 0,
      "modules": 0
    },
    {
      "region_depth": 2,
      "total_ops": 3,
      "total_blocks": 2,
      "ssa_values": 0,
      "functions": 0,
      "modules": 0
    },
    {
      "region_depth": 2,
      "total_ops": 3,
      "total_blocks": 2,
      "ssa_values": 0,
      "functions": 0,
      "modules": 0
    },
    {
      "region_depth": 2,
      "total_ops": 3,
      "total_blocks": 2,
      "ssa_values": 0,
      "functions": 0,
      "modules": 0
    },
    {
      "region_depth": 2,
      "total_ops": 3,
      "total_blocks": 2,
      "ssa_values": 0,
      "functions": 0,
      "modules": 0
    },
    {
      "region_depth": 2,
      "total_ops": 3,
      "total_blocks": 2,
      "ssa_values": 0,
      "functions": 0,
      "modules": 0
    },
    {
      "region_depth": 2,
      "total_ops": 3,
      "total_blocks": 2,
      "ssa_values": 0,
      "functions": 0,
      "modules": 0
    },
    {
      "region_depth": 2,
      "total_ops": 3,
      "total_blocks": 2,
      "ssa_values": 0,
      "functions": 0,
      "modules": 0
    },
    {
      "region_depth": 2,
      "total_ops": 12,
      "total_blocks": 4,
      "ssa_values": 0,
      "functions": 0,
      "modules": 0
    },
    {
      "region_depth": 2,
      "total_ops": 5,
      "total_blocks": 2,
      "ssa_values": 0,
      "functions": 0,
      "modules": 0
    },
    {
      "region_depth": 2,
      "total_ops": 3,
      "total_blocks": 2,
      "ssa_values": 0,
      "functions": 0,
      "modules": 0
    },
    {
      "region_depth": 2,
      "total_ops": 4,
      "total_blocks": 2,
      "ssa_values": 0,
      "functions": 0,
      "modules": 0
    },
    {
      "region_depth": 2,
      "total_ops": 4,
      "total_blocks": 2,
      "ssa_values": 0,
      "functions": 0,
      "modules": 0
    },
    {
      "region_depth": 2,
      "total_ops": 3,
      "total_blocks": 2,
      "ssa_values": 0,
      "functions": 0,
      "modules": 0
    },
    {
      "region_depth": 2,
      "total_ops": 4,
      "total_blocks": 2,
      "ssa_values": 0,
      "functions": 0,
      "modules": 0
    },
    {
      "region_depth": 2,
      "total_ops": 3,
      "total_blocks": 2,
      "ssa_values": 0,
      "functions": 0,
      "modules": 0
    },
    {
      "region_depth": 2,
      "total_ops": 3,
      "total_blocks": 2,
      "ssa_values": 0,
      "functions": 0,
      "modules": 0
    },
    {
      "region_depth": 2,
      "total_ops": 3,
      "total_blocks": 2,
      "ssa_values": 0,
      "functions": 0,
      "modules": 0
    },
    {
      "region_depth": 2,
      "total_ops": 5,
      "total_blocks": 2,
      "ssa_values": 0,
      "functions": 0,
      "modules": 0
    },
    {
      "region_depth": 2,
      "total_ops": 3,
      "total_blocks": 2,
      "ssa_values": 0,
      "functions": 0,
      "modules": 0
    },
    {
      "region_depth": 2,
      "total_ops": 3,
      "total_blocks": 2,
      "ssa_values": 0,
      "functions": 0,
      "modules": 0
    },
    {
      "region_depth": 2,
      "total_ops": 3,
      "total_blocks": 2,
      "ssa_values": 0,
      "functions": 0,
      "modules": 0
    },
    {
      "region_depth": 2,
      "total_ops": 5,
      "total_blocks": 2,
      "ssa_values": 0,
      "functions": 0,
      "modules": 0
    },
    {
      "region_depth": 2,
      "total_ops": 3,
      "total_blocks": 2,
      "ssa_values": 0,
      "functions": 0,
      "modules": 0
    },
    {
      "region_depth": 2,
      "total_ops": 6,
      "total_blocks": 2,
      "ssa_values": 0,
      "functions": 0,
      "modules": 0
    },
    {
      "region_depth": 2,
      "total_ops": 4,
      "total_blocks": 2,
      "ssa_values": 0,
      "functions": 0,
      "modules": 0
    },
    {
      "region_depth": 2,
      "total_ops": 3,
      "total_blocks": 2,
      "ssa_values": 0,
      "functions": 0,
      "modules": 0
    },
    {
      "region_depth": 2,
      "total_ops": 3,
      "total_blocks": 2,
      "ssa_values": 0,
      "functions": 0,
      "modules": 0
    },
    {
      "region_depth": 2,
      "total_ops": 4,
      "total_blocks": 2,
      "ssa_values": 0,
      "functions": 0,
      "modules": 0
    },
    {
      "region_depth": 2,
      "total_ops": 3,
      "total_blocks": 2,
      "ssa_values": 0,
      "functions": 0,
      "modules": 0
    },
    {
      "region_depth": 2,
      "total_ops": 3,
      "total_blocks": 2,
      "ssa_values": 0,
      "functions": 0,
      "modules": 0
    },
    {
      "region_depth": 2,
      "total_ops": 3,
      "total_blocks": 2,
      "ssa_values": 0,
      "functions": 0,
      "modules": 0
    },
    {
      "region_depth": 2,
      "total_ops": 3,
      "total_blocks": 2,
      "ssa_values": 0,
      "functions": 0,
      "modules": 0
    },
    {
      "region_depth": 2,
      "total_ops": 3,
      "total_blocks": 2,
      "ssa_values": 0,
      "functions": 0,
      "modules": 0
    },
    {
      "region_depth": 2,
      "total_ops": 3,
      "total_blocks": 2,
      "ssa_values": 0,
      "functions": 0,
      "modules": 0
    },
    {
      "region_depth": 2,
      "total_ops": 3,
      "total_blocks": 2,
      "ssa_values": 0,
      "functions": 0,
      "modules": 0
    },
    {
      "region_depth": 2,
      "total_ops": 3,
      "total_blocks": 2,
      "ssa_values": 0,
      "functions": 0,
      "modules": 0
    },
    {
      "region_depth": 2,
      "total_ops": 3,
      "total_blocks": 2,
      "ssa_values": 0,
      "functions": 0,
      "modules": 0
    },
    {
      "region_depth": 2,
      "total_ops": 4,
      "total_blocks": 2,
      "ssa_values": 0,
      "functions": 0,
      "modules": 0
    },
    {
      "region_depth": 2,
      "total_ops": 3,
      "total_blocks": 2,
      "ssa_values": 0,
      "functions": 0,
      "modules": 0
    },
    {
      "region_depth": 3,
      "total_ops": 7,
      "total_blocks": 3,
      "ssa_values": 0,
      "functions": 0,
      "modules": 0
    },
    {
      "region_depth": 2,
      "total_ops": 3,
      "total_blocks": 2,
      "ssa_values": 0,
      "functions": 0,
      "modules": 0
    },
    {
      "region_depth": 2,
      "total_ops": 3,
      "total_blocks": 2,
      "ssa_values": 0,
      "functions": 0,
      "modules": 0
    },
    {
      "region_depth": 2,
      "total_ops": 4,
      "total_blocks": 2,
      "ssa_values": 0,
      "functions": 0,
      "modules": 0
    },
    {
      "region_depth": 2,
      "total_ops": 3,
      "total_blocks": 2,
      "ssa_values": 0,
      "functions": 0,
      "modules": 0
    },
    {
      "region_depth": 2,
      "total_ops": 3,
      "total_blocks": 2,
      "ssa_values": 0,
      "functions": 0,
      "modules": 0
    },
    {
      "region_depth": 2,
      "total_ops": 3,
      "total_blocks": 2,
      "ssa_values": 0,
      "functions": 0,
      "modules": 0
    },
    {
      "region_depth": 2,
      "total_ops": 3,
      "total_blocks": 2,
      "ssa_values": 0,
      "functions": 0,
      "modules": 0
    },
    {
      "region_depth": 2,
      "total_ops": 3,
      "total_blocks": 2,
      "ssa_values": 0,
      "functions": 0,
      "modules": 0
    },
    {
      "region_depth": 2,
      "total_ops": 3,
      "total_blocks": 2,
      "ssa_values": 0,
      "functions": 0,
      "modules": 0
    },
    {
      "region_depth": 2,
      "total_ops": 6,
      "total_blocks": 2,
      "ssa_values": 0,
      "functions": 0,
      "modules": 0
    },
    {
      "region_depth": 2,
      "total_ops": 4,
      "total_blocks": 2,
      "ssa_values": 0,
      "functions": 0,
      "modules": 0
    },
    {
      "region_depth": 2,
      "total_ops": 3,
      "total_blocks": 2,
      "ssa_values": 0,
      "functions": 0,
      "modules": 0
    },
    {
      "region_depth": 2,
      "total_ops": 4,
      "total_blocks": 2,
      "ssa_values": 0,
      "functions": 0,
      "modules": 0
    },
    {
      "region_depth": 2,
      "total_ops": 5,
      "total_blocks": 2,
      "ssa_values": 0,
      "functions": 0,
      "modules": 0
    },
    {
      "region_depth": 2,
      "total_ops": 5,
      "total_blocks": 2,
      "ssa_values": 0,
      "functions": 0,
      "modules": 0
    },
    {
      "region_depth": 2,
      "total_ops": 3,
      "total_blocks": 2,
      "ssa_values": 0,
      "functions": 0,
      "modules": 0
    },
    {
      "region_depth": 2,
      "total_ops": 5,
      "total_blocks": 2,
      "ssa_values": 0,
      "functions": 0,
      "modules": 0
    },
    {
      "region_depth": 2,
      "total_ops": 4,
      "total_blocks": 2,
      "ssa_values": 0,
      "functions": 0,
      "modules": 0
    },
    {
      "region_depth": 2,
      "total_ops": 3,
      "total_blocks": 2,
      "ssa_values": 0,
      "functions": 0,
      "modules": 0
    },
    {
      "region_depth": 2,
      "total_ops": 3,
      "total_blocks": 2,
      "ssa_values": 0,
      "functions": 0,
      "modules": 0
    },
    {
      "region_depth": 2,
      "total_ops": 4,
      "total_blocks": 2,
      "ssa_values": 0,
      "functions": 0,
      "modules": 0
    },
    {
      "region_depth": 2,
      "total_ops": 3,
      "total_blocks": 2,
      "ssa_values": 0,
      "functions": 0,
      "modules": 0
    },
    {
      "region_depth": 2,
      "total_ops": 6,
      "total_blocks": 2,
      "ssa_values": 0,
      "functions": 0,
      "modules": 0
    },
    {
      "region_depth": 2,
      "total_ops": 3,
      "total_blocks": 2,
      "ssa_values": 0,
      "functions": 0,
      "modules": 0
    },
    {
      "region_depth": 4,
      "total_ops": 15,
      "total_blocks": 4,
      "ssa_values": 0,
      "functions": 0,
      "modules": 0
    },
    {
      "region_depth": 2,
      "total_ops": 3,
      "total_blocks": 2,
      "ssa_values": 0,
      "functions": 0,
      "modules": 0
    },
    {
      "region_depth": 2,
      "total_ops": 3,
      "total_blocks": 2,
      "ssa_values": 0,
      "functions": 0,
      "modules": 0
    },
    {
      "region_depth": 2,
      "total_ops": 3,
      "total_blocks": 2,
      "ssa_values": 0,
      "functions": 0,
      "modules": 0
    },
    {
      "region_depth": 2,
      "total_ops": 4,
      "total_blocks": 2,
      "ssa_values": 0,
      "functions": 0,
      "modules": 0
    },
    {
      "region_depth": 2,
      "total_ops": 3,
      "total_blocks": 2,
      "ssa_values": 0,
      "functions": 0,
      "modules": 0
    },
    {
      "region_depth": 2,
      "total_ops": 4,
      "total_blocks": 2,
      "ssa_values": 0,
      "functions": 0,
      "modules": 0
    },
    {
      "region_depth": 2,
      "total_ops": 3,
      "total_blocks": 2,
      "ssa_values": 0,
      "functions": 0,
      "modules": 0
    },
    {
      "region_depth": 2,
      "total_ops": 3,
      "total_blocks": 2,
      "ssa_values": 0,
      "functions": 0,
      "modules": 0
    },
    {
      "region_depth": 2,
      "total_ops": 3,
      "total_blocks": 2,
      "ssa_values": 0,
      "functions": 0,
      "modules": 0
    },
    {
      "region_depth": 2,
      "total_ops": 5,
      "total_blocks": 2,
      "ssa_values": 0,
      "functions": 0,
      "modules": 0
    },
    {
      "region_depth": 2,
      "total_ops": 5,
      "total_blocks": 2,
      "ssa_values": 0,
      "functions": 0,
      "modules": 0
    },
    {
      "region_depth": 2,
      "total_ops": 4,
      "total_blocks": 2,
      "ssa_values": 0,
      "functions": 0,
      "modules": 0
    },
    {
      "region_depth": 2,
      "total_ops": 3,
      "total_blocks": 2,
      "ssa_values": 0,
      "functions": 0,
      "modules": 0
    },
    {
      "region_depth": 2,
      "total_ops": 12,
      "total_blocks": 2,
      "ssa_values": 0,
      "functions": 0,
      "modules": 0
    },
    {
      "region_depth": 2,
      "total_ops": 5,
      "total_blocks": 2,
      "ssa_values": 0,
      "functions": 0,
      "modules": 0
    },
    {
      "region_depth": 2,
      "total_ops": 3,
      "total_blocks": 2,
      "ssa_values": 0,
      "functions": 0,
      "modules": 0
    },
    {
      "region_depth": 2,
      "total_ops": 3,
      "total_blocks": 2,
      "ssa_values": 0,
      "functions": 0,
      "modules": 0
    },
    {
      "region_depth": 2,
      "total_ops": 3,
      "total_blocks": 2,
      "ssa_values": 0,
      "functions": 0,
      "modules": 0
    },
    {
      "region_depth": 2,
      "total_ops": 3,
      "total_blocks": 2,
      "ssa_values": 0,
      "functions": 0,
      "modules": 0
    },
    {
      "region_depth": 2,
      "total_ops": 3,
      "total_blocks": 2,
      "ssa_values": 0,
      "functions": 0,
      "modules": 0
    },
    {
      "region_depth": 2,
      "total_ops": 3,
      "total_blocks": 2,
      "ssa_values": 0,
      "functions": 0,
      "modules": 0
    },
    {
      "region_depth": 2,
      "total_ops": 5,
      "total_blocks": 2,
      "ssa_values": 0,
      "functions": 0,
      "modules": 0
    },
    {
      "region_depth": 2,
      "total_ops": 3,
      "total_blocks": 2,
      "ssa_values": 0,
      "functions": 0,
      "modules": 0
    },
    {
      "region_depth": 2,
      "total_ops": 3,
      "total_blocks": 2,
      "ssa_values": 0,
      "functions": 0,
      "modules": 0
    },
    {
      "region_depth": 2,
      "total_ops": 7,
      "total_blocks": 2,
      "ssa_values": 0,
      "functions": 0,
      "modules": 0
    },
    {
      "region_depth": 2,
      "total_ops": 3,
      "total_blocks": 2,
      "ssa_values": 0,
      "functions": 0,
      "modules": 0
    },
    {
      "region_depth": 2,
      "total_ops": 3,
      "total_blocks": 2,
      "ssa_values": 0,
      "functions": 0,
      "modules": 0
    },
    {
      "region_depth": 2,
      "total_ops": 7,
      "total_blocks": 2,
      "ssa_values": 0,
      "functions": 0,
      "modules": 0
    },
    {
      "region_depth": 2,
      "total_ops": 3,
      "total_blocks": 2,
      "ssa_values": 0,
      "functions": 0,
      "modules": 0
    },
    {
      "region_depth": 2,
      "total_ops": 3,
      "total_blocks": 2,
      "ssa_values": 0,
      "functions": 0,
      "modules": 0
    },
    {
      "region_depth": 2,
      "total_ops": 4,
      "total_blocks": 2,
      "ssa_values": 0,
      "functions": 0,
      "modules": 0
    },
    {
      "region_depth": 2,
      "total_ops": 3,
      "total_blocks": 2,
      "ssa_values": 0,
      "functions": 0,
      "modules": 0
    },
    {
      "region_depth": 2,
      "total_ops": 3,
      "total_blocks": 2,
      "ssa_values": 0,
      "functions": 0,
      "modules": 0
    },
    {
      "region_depth": 2,
      "total_ops": 3,
      "total_blocks": 2,
      "ssa_values": 0,
      "functions": 0,
      "modules": 0
    },
    {
      "region_depth": 2,
      "total_ops": 3,
      "total_blocks": 2,
      "ssa_values": 0,
      "functions": 0,
      "modules": 0
    },
    {
      "region_depth": 2,
      "total_ops": 5,
      "total_blocks": 2,
      "ssa_values": 0,
      "functions": 0,
      "modules": 0
    },
    {
      "region_depth": 2,
      "total_ops": 3,
      "total_blocks": 2,
      "ssa_values": 0,
      "functions": 0,
      "modules": 0
    },
    {
      "region_depth": 2,
      "total_ops": 3,
      "total_blocks": 2,
      "ssa_values": 0,
      "functions": 0,
      "modules": 0
    },
    {
      "region_depth": 2,
      "total_ops": 3,
      "total_blocks": 2,
      "ssa_values": 0,
      "functions": 0,
      "modules": 0
    },
    {
      "region_depth": 2,
      "total_ops": 4,
      "total_blocks": 2,
      "ssa_values": 0,
      "functions": 0,
      "modules": 0
    },
    {
      "region_depth": 2,
      "total_ops": 4,
      "total_blocks": 2,
      "ssa_values": 0,
      "functions": 0,
      "modules": 0
    },
    {
      "region_depth": 2,
      "total_ops": 4,
      "total_blocks": 2,
      "ssa_values": 0,
      "functions": 0,
      "modules": 0
    },
    {
      "region_depth": 2,
      "total_ops": 3,
      "total_blocks": 2,
      "ssa_values": 0,
      "functions": 0,
      "modules": 0
    },
    {
      "region_depth": 2,
      "total_ops": 3,
      "total_blocks": 2,
      "ssa_values": 0,
      "functions": 0,
      "modules": 0
    },
    {
      "region_depth": 2,
      "total_ops": 5,
      "total_blocks": 2,
      "ssa_values": 0,
      "functions": 0,
      "modules": 0
    },
    {
      "region_depth": 2,
      "total_ops": 3,
      "total_blocks": 2,
      "ssa_values": 0,
      "functions": 0,
      "modules": 0
    },
    {
      "region_depth": 2,
      "total_ops": 4,
      "total_blocks": 2,
      "ssa_values": 0,
      "functions": 0,
      "modules": 0
    },
    {
      "region_depth": 2,
      "total_ops": 4,
      "total_blocks": 2,
      "ssa_values": 0,
      "functions": 0,
      "modules": 0
    },
    {
      "region_depth": 2,
      "total_ops": 3,
      "total_blocks": 2,
      "ssa_values": 0,
      "functions": 0,
      "modules": 0
    },
    {
      "region_depth": 2,
      "total_ops": 3,
      "total_blocks": 2,
      "ssa_values": 0,
      "functions": 0,
      "modules": 0
    },
    {
      "region_depth": 2,
      "total_ops": 4,
      "total_blocks": 2,
      "ssa_values": 0,
      "functions": 0,
      "modules": 0
    },
    {
      "region_depth": 2,
      "total_ops": 5,
      "total_blocks": 2,
      "ssa_values": 0,
      "functions": 0,
      "modules": 0
    },
    {
      "region_depth": 2,
      "total_ops": 6,
      "total_blocks": 2,
      "ssa_values": 0,
      "functions": 0,
      "modules": 0
    },
    {
      "region_depth": 2,
      "total_ops": 3,
      "total_blocks": 2,
      "ssa_values": 0,
      "functions": 0,
      "modules": 0
    },
    {
      "region_depth": 2,
      "total_ops": 3,
      "total_blocks": 2,
      "ssa_values": 0,
      "functions": 0,
      "modules": 0
    },
    {
      "region_depth": 2,
      "total_ops": 3,
      "total_blocks": 2,
      "ssa_values": 0,
      "functions": 0,
      "modules": 0
    },
    {
      "region_depth": 2,
      "total_ops": 4,
      "total_blocks": 2,
      "ssa_values": 0,
      "functions": 0,
      "modules": 0
    },
    {
      "region_depth": 2,
      "total_ops": 3,
      "total_blocks": 2,
      "ssa_values": 0,
      "functions": 0,
      "modules": 0
    },
    {
      "region_depth": 2,
      "total_ops": 3,
      "total_blocks": 2,
      "ssa_values": 0,
      "functions": 0,
      "modules": 0
    },
    {
      "region_depth": 2,
      "total_ops": 4,
      "total_blocks": 2,
      "ssa_values": 0,
      "functions": 0,
      "modules": 0
    },
    {
      "region_depth": 2,
      "total_ops": 5,
      "total_blocks": 2,
      "ssa_values": 0,
      "functions": 0,
      "modules": 0
    },
    {
      "region_depth": 2,
      "total_ops": 3,
      "total_blocks": 2,
      "ssa_values": 0,
      "functions": 0,
      "modules": 0
    },
    {
      "region_depth": 2,
      "total_ops": 4,
      "total_blocks": 2,
      "ssa_values": 0,
      "functions": 0,
      "modules": 0
    },
    {
      "region_depth": 2,
      "total_ops": 3,
      "total_blocks": 2,
      "ssa_values": 0,
      "functions": 0,
      "modules": 0
    },
    {
      "region_depth": 2,
      "total_ops": 3,
      "total_blocks": 2,
      "ssa_values": 0,
      "functions": 0,
      "modules": 0
    },
    {
      "region_depth": 2,
      "total_ops": 3,
      "total_blocks": 2,
      "ssa_values": 0,
      "functions": 0,
      "modules": 0
    },
    {
      "region_depth": 2,
      "total_ops": 3,
      "total_blocks": 2,
      "ssa_values": 0,
      "functions": 0,
      "modules": 0
    },
    {
      "region_depth": 2,
      "total_ops": 7,
      "total_blocks": 2,
      "ssa_values": 0,
      "functions": 0,
      "modules": 0
    },
    {
      "region_depth": 2,
      "total_ops": 8,
      "total_blocks": 2,
      "ssa_values": 0,
      "functions": 0,
      "modules": 0
    },
    {
      "region_depth": 2,
      "total_ops": 3,
      "total_blocks": 2,
      "ssa_values": 0,
      "functions": 0,
      "modules": 0
    },
    {
      "region_depth": 2,
      "total_ops": 4,
      "total_blocks": 2,
      "ssa_values": 0,
      "functions": 0,
      "modules": 0
    },
    {
      "region_depth": 2,
      "total_ops": 5,
      "total_blocks": 2,
      "ssa_values": 0,
      "functions": 0,
      "modules": 0
    },
    {
      "region_depth": 2,
      "total_ops": 6,
      "total_blocks": 2,
      "ssa_values": 0,
      "functions": 0,
      "modules": 0
    },
    {
      "region_depth": 2,
      "total_ops": 3,
      "total_blocks": 2,
      "ssa_values": 0,
      "functions": 0,
      "modules": 0
    },
    {
      "region_depth": 2,
      "total_ops": 4,
      "total_blocks": 2,
      "ssa_values": 0,
      "functions": 0,
      "modules": 0
    },
    {
      "region_depth": 2,
      "total_ops": 3,
      "total_blocks": 2,
      "ssa_values": 0,
      "functions": 0,
      "modules": 0
    },
    {
      "region_depth": 2,
      "total_ops": 3,
      "total_blocks": 2,
      "ssa_values": 0,
      "functions": 0,
      "modules": 0
    },
    {
      "region_depth": 2,
      "total_ops": 4,
      "total_blocks": 2,
      "ssa_values": 0,
      "functions": 0,
      "modules": 0
    },
    {
      "region_depth": 2,
      "total_ops": 3,
      "total_blocks": 2,
      "ssa_values": 0,
      "functions": 0,
      "modules": 0
    },
    {
      "region_depth": 2,
      "total_ops": 4,
      "total_blocks": 2,
      "ssa_values": 0,
      "functions": 0,
      "modules": 0
    },
    {
      "region_depth": 2,
      "total_ops": 3,
      "total_blocks": 2,
      "ssa_values": 0,
      "functions": 0,
      "modules": 0
    },
    {
      "region_depth": 2,
      "total_ops": 3,
      "total_blocks": 2,
      "ssa_values": 0,
      "functions": 0,
      "modules": 0
    },
    {
      "region_depth": 2,
      "total_ops": 4,
      "total_blocks": 2,
      "ssa_values": 0,
      "functions": 0,
      "modules": 0
    },
    {
      "region_depth": 2,
      "total_ops": 3,
      "total_blocks": 2,
      "ssa_values": 0,
      "functions": 0,
      "modules": 0
    },
    {
      "region_depth": 2,
      "total_ops": 3,
      "total_blocks": 2,
      "ssa_values": 0,
      "functions": 0,
      "modules": 0
    },
    {
      "region_depth": 2,
      "total_ops": 3,
      "total_blocks": 2,
      "ssa_values": 0,
      "functions": 0,
      "modules": 0
    },
    {
      "region_depth": 2,
      "total_ops": 4,
      "total_blocks": 2,
      "ssa_values": 0,
      "functions": 0,
      "modules": 0
    },
    {
      "region_depth": 2,
      "total_ops": 6,
      "total_blocks": 2,
      "ssa_values": 0,
      "functions": 0,
      "modules": 0
    },
    {
      "region_depth": 2,
      "total_ops": 3,
      "total_blocks": 2,
      "ssa_values": 0,
      "functions": 0,
      "modules": 0
    },
    {
      "region_depth": 2,
      "total_ops": 3,
      "total_blocks": 2,
      "ssa_values": 0,
      "functions": 0,
      "modules": 0
    },
    {
      "region_depth": 2,
      "total_ops": 3,
      "total_blocks": 2,
      "ssa_values": 0,
      "functions": 0,
      "modules": 0
    },
    {
      "region_depth": 2,
      "total_ops": 4,
      "total_blocks": 2,
      "ssa_values": 0,
      "functions": 0,
      "modules": 0
    },
    {
      "region_depth": 2,
      "total_ops": 4,
      "total_blocks": 2,
      "ssa_values": 0,
      "functions": 0,
      "modules": 0
    },
    {
      "region_depth": 2,
      "total_ops": 3,
      "total_blocks": 2,
      "ssa_values": 0,
      "functions": 0,
      "modules": 0
    },
    {
      "region_depth": 2,
      "total_ops": 5,
      "total_blocks": 2,
      "ssa_values": 0,
      "functions": 0,
      "modules": 0
    },
    {
      "region_depth": 2,
      "total_ops": 4,
      "total_blocks": 2,
      "ssa_values": 0,
      "functions": 0,
      "modules": 0
    },
    {
      "region_depth": 2,
      "total_ops": 3,
      "total_blocks": 2,
      "ssa_values": 0,
      "functions": 0,
      "modules": 0
    },
    {
      "region_depth": 2,
      "total_ops": 3,
      "total_blocks": 2,
      "ssa_values": 0,
      "functions": 0,
      "modules": 0
    },
    {
      "region_depth": 2,
      "total_ops": 5,
      "total_blocks": 2,
      "ssa_values": 0,
      "functions": 0,
      "modules": 0
    },
    {
      "region_depth": 2,
      "total_ops": 3,
      "total_blocks": 2,
      "ssa_values": 0,
      "functions": 0,
      "modules": 0
    },
    {
      "region_depth": 2,
      "total_ops": 4,
      "total_blocks": 2,
      "ssa_values": 0,
      "functions": 0,
      "modules": 0
    },
    {
      "region_depth": 2,
      "total_ops": 4,
      "total_blocks": 2,
      "ssa_values": 0,
      "functions": 0,
      "modules": 0
    },
    {
      "region_depth": 2,
      "total_ops": 23,
      "total_blocks": 2,
      "ssa_values": 0,
      "functions": 0,
      "modules": 0
    },
    {
      "region_depth": 2,
      "total_ops": 3,
      "total_blocks": 2,
      "ssa_values": 0,
      "functions": 0,
      "modules": 0
    },
    {
      "region_depth": 2,
      "total_ops": 4,
      "total_blocks": 2,
      "ssa_values": 0,
      "functions": 0,
      "modules": 0
    },
    {
      "region_depth": 2,
      "total_ops": 4,
      "total_blocks": 2,
      "ssa_values": 0,
      "functions": 0,
      "modules": 0
    },
    {
      "region_depth": 2,
      "total_ops": 6,
      "total_blocks": 2,
      "ssa_values": 0,
      "functions": 0,
      "modules": 0
    },
    {
      "region_depth": 2,
      "total_ops": 3,
      "total_blocks": 2,
      "ssa_values": 0,
      "functions": 0,
      "modules": 0
    },
    {
      "region_depth": 2,
      "total_ops": 4,
      "total_blocks": 2,
      "ssa_values": 0,
      "functions": 0,
      "modules": 0
    },
    {
      "region_depth": 2,
      "total_ops": 4,
      "total_blocks": 2,
      "ssa_values": 0,
      "functions": 0,
      "modules": 0
    },
    {
      "region_depth": 2,
      "total_ops": 3,
      "total_blocks": 2,
      "ssa_values": 0,
      "functions": 0,
      "modules": 0
    },
    {
      "region_depth": 2,
      "total_ops": 3,
      "total_blocks": 2,
      "ssa_values": 0,
      "functions": 0,
      "modules": 0
    },
    {
      "region_depth": 2,
      "total_ops": 6,
      "total_blocks": 2,
      "ssa_values": 0,
      "functions": 0,
      "modules": 0
    },
    {
      "region_depth": 2,
      "total_ops": 3,
      "total_blocks": 2,
      "ssa_values": 0,
      "functions": 0,
      "modules": 0
    },
    {
      "region_depth": 2,
      "total_ops": 3,
      "total_blocks": 2,
      "ssa_values": 0,
      "functions": 0,
      "modules": 0
    },
    {
      "region_depth": 2,
      "total_ops": 4,
      "total_blocks": 2,
      "ssa_values": 0,
      "functions": 0,
      "modules": 0
    },
    {
      "region_depth": 2,
      "total_ops": 3,
      "total_blocks": 2,
      "ssa_values": 0,
      "functions": 0,
      "modules": 0
    },
    {
      "region_depth": 2,
      "total_ops": 3,
      "total_blocks": 2,
      "ssa_values": 0,
      "functions": 0,
      "modules": 0
    },
    {
      "region_depth": 2,
      "total_ops": 4,
      "total_blocks": 2,
      "ssa_values": 0,
      "functions": 0,
      "modules": 0
    },
    {
      "region_depth": 2,
      "total_ops": 4,
      "total_blocks": 2,
      "ssa_values": 0,
      "functions": 0,
      "modules": 0
    },
    {
      "region_depth": 2,
      "total_ops": 4,
      "total_blocks": 2,
      "ssa_values": 0,
      "functions": 0,
      "modules": 0
    },
    {
      "region_depth": 2,
      "total_ops": 3,
      "total_blocks": 2,
      "ssa_values": 0,
      "functions": 0,
      "modules": 0
    },
    {
      "region_depth": 3,
      "total_ops": 11,
      "total_blocks": 4,
      "ssa_values": 0,
      "functions": 0,
      "modules": 0
    },
    {
      "region_depth": 2,
      "total_ops": 6,
      "total_blocks": 2,
      "ssa_values": 0,
      "functions": 0,
      "modules": 0
    },
    {
      "region_depth": 2,
      "total_ops": 3,
      "total_blocks": 2,
      "ssa_values": 0,
      "functions": 0,
      "modules": 0
    },
    {
      "region_depth": 2,
      "total_ops": 3,
      "total_blocks": 2,
      "ssa_values": 0,
      "functions": 0,
      "modules": 0
    },
    {
      "region_depth": 2,
      "total_ops": 4,
      "total_blocks": 2,
      "ssa_values": 0,
      "functions": 0,
      "modules": 0
    },
    {
      "region_depth": 2,
      "total_ops": 3,
      "total_blocks": 2,
      "ssa_values": 0,
      "functions": 0,
      "modules": 0
    },
    {
      "region_depth": 2,
      "total_ops": 3,
      "total_blocks": 2,
      "ssa_values": 0,
      "functions": 0,
      "modules": 0
    },
    {
      "region_depth": 2,
      "total_ops": 3,
      "total_blocks": 2,
      "ssa_values": 0,
      "functions": 0,
      "modules": 0
    },
    {
      "region_depth": 2,
      "total_ops": 4,
      "total_blocks": 2,
      "ssa_values": 0,
      "functions": 0,
      "modules": 0
    },
    {
      "region_depth": 3,
      "total_ops": 9,
      "total_blocks": 3,
      "ssa_values": 0,
      "functions": 0,
      "modules": 0
    },
    {
      "region_depth": 2,
      "total_ops": 4,
      "total_blocks": 2,
      "ssa_values": 0,
      "functions": 0,
      "modules": 0
    },
    {
      "region_depth": 2,
      "total_ops": 3,
      "total_blocks": 2,
      "ssa_values": 0,
      "functions": 0,
      "modules": 0
    },
    {
      "region_depth": 2,
      "total_ops": 4,
      "total_blocks": 2,
      "ssa_values": 0,
      "functions": 0,
      "modules": 0
    },
    {
      "region_depth": 2,
      "total_ops": 5,
      "total_blocks": 2,
      "ssa_values": 0,
      "functions": 0,
      "modules": 0
    },
    {
      "region_depth": 2,
      "total_ops": 3,
      "total_blocks": 2,
      "ssa_values": 0,
      "functions": 0,
      "modules": 0
    },
    {
      "region_depth": 3,
      "total_ops": 8,
      "total_blocks": 3,
      "ssa_values": 0,
      "functions": 0,
      "modules": 0
    },
    {
      "region_depth": 2,
      "total_ops": 4,
      "total_blocks": 2,
      "ssa_values": 0,
      "functions": 0,
      "modules": 0
    },
    {
      "region_depth": 2,
      "total_ops": 3,
      "total_blocks": 2,
      "ssa_values": 0,
      "functions": 0,
      "modules": 0
    },
    {
      "region_depth": 2,
      "total_ops": 5,
      "total_blocks": 2,
      "ssa_values": 0,
      "functions": 0,
      "modules": 0
    },
    {
      "region_depth": 2,
      "total_ops": 3,
      "total_blocks": 2,
      "ssa_values": 0,
      "functions": 0,
      "modules": 0
    },
    {
      "region_depth": 2,
      "total_ops": 3,
      "total_blocks": 2,
      "ssa_values": 0,
      "functions": 0,
      "modules": 0
    },
    {
      "region_depth": 2,
      "total_ops": 3,
      "total_blocks": 2,
      "ssa_values": 0,
      "functions": 0,
      "modules": 0
    },
    {
      "region_depth": 2,
      "total_ops": 4,
      "total_blocks": 2,
      "ssa_values": 0,
      "functions": 0,
      "modules": 0
    },
    {
      "region_depth": 2,
      "total_ops": 3,
      "total_blocks": 2,
      "ssa_values": 0,
      "functions": 0,
      "modules": 0
    },
    {
      "region_depth": 2,
      "total_ops": 5,
      "total_blocks": 2,
      "ssa_values": 0,
      "functions": 0,
      "modules": 0
    },
    {
      "region_depth": 2,
      "total_ops": 6,
      "total_blocks": 2,
      "ssa_values": 0,
      "functions": 0,
      "modules": 0
    },
    {
      "region_depth": 2,
      "total_ops": 5,
      "total_blocks": 2,
      "ssa_values": 0,
      "functions": 0,
      "modules": 0
    },
    {
      "region_depth": 2,
      "total_ops": 4,
      "total_blocks": 2,
      "ssa_values": 0,
      "functions": 0,
      "modules": 0
    },
    {
      "region_depth": 2,
      "total_ops": 6,
      "total_blocks": 2,
      "ssa_values": 0,
      "functions": 0,
      "modules": 0
    },
    {
      "region_depth": 2,
      "total_ops": 6,
      "total_blocks": 2,
      "ssa_values": 0,
      "functions": 0,
      "modules": 0
    },
    {
      "region_depth": 2,
      "total_ops": 3,
      "total_blocks": 2,
      "ssa_values": 0,
      "functions": 0,
      "modules": 0
    },
    {
      "region_depth": 2,
      "total_ops": 4,
      "total_blocks": 2,
      "ssa_values": 0,
      "functions": 0,
      "modules": 0
    },
    {
      "region_depth": 2,
      "total_ops": 3,
      "total_blocks": 2,
      "ssa_values": 0,
      "functions": 0,
      "modules": 0
    },
    {
      "region_depth": 2,
      "total_ops": 3,
      "total_blocks": 2,
      "ssa_values": 0,
      "functions": 0,
      "modules": 0
    },
    {
      "region_depth": 2,
      "total_ops": 5,
      "total_blocks": 2,
      "ssa_values": 0,
      "functions": 0,
      "modules": 0
    },
    {
      "region_depth": 2,
      "total_ops": 3,
      "total_blocks": 2,
      "ssa_values": 0,
      "functions": 0,
      "modules": 0
    },
    {
      "region_depth": 2,
      "total_ops": 3,
      "total_blocks": 2,
      "ssa_values": 0,
      "functions": 0,
      "modules": 0
    },
    {
      "region_depth": 2,
      "total_ops": 4,
      "total_blocks": 2,
      "ssa_values": 0,
      "functions": 0,
      "modules": 0
    },
    {
      "region_depth": 2,
      "total_ops": 4,
      "total_blocks": 2,
      "ssa_values": 0,
      "functions": 0,
      "modules": 0
    },
    {
      "region_depth": 2,
      "total_ops": 6,
      "total_blocks": 2,
      "ssa_values": 0,
      "functions": 0,
      "modules": 0
    },
    {
      "region_depth": 2,
      "total_ops": 4,
      "total_blocks": 2,
      "ssa_values": 0,
      "functions": 0,
      "modules": 0
    },
    {
      "region_depth": 2,
      "total_ops": 4,
      "total_blocks": 2,
      "ssa_values": 0,
      "functions": 0,
      "modules": 0
    },
    {
      "region_depth": 2,
      "total_ops": 3,
      "total_blocks": 2,
      "ssa_values": 0,
      "functions": 0,
      "modules": 0
    },
    {
      "region_depth": 2,
      "total_ops": 6,
      "total_blocks": 2,
      "ssa_values": 0,
      "functions": 0,
      "modules": 0
    },
    {
      "region_depth": 2,
      "total_ops": 4,
      "total_blocks": 2,
      "ssa_values": 0,
      "functions": 0,
      "modules": 0
    },
    {
      "region_depth": 2,
      "total_ops": 4,
      "total_blocks": 2,
      "ssa_values": 0,
      "functions": 0,
      "modules": 0
    },
    {
      "region_depth": 2,
      "total_ops": 3,
      "total_blocks": 2,
      "ssa_values": 0,
      "functions": 0,
      "modules": 0
    },
    {
      "region_depth": 2,
      "total_ops": 3,
      "total_blocks": 2,
      "ssa_values": 0,
      "functions": 0,
      "modules": 0
    },
    {
      "region_depth": 2,
      "total_ops": 3,
      "total_blocks": 2,
      "ssa_values": 0,
      "functions": 0,
      "modules": 0
    },
    {
      "region_depth": 2,
      "total_ops": 3,
      "total_blocks": 2,
      "ssa_values": 0,
      "functions": 0,
      "modules": 0
    },
    {
      "region_depth": 2,
      "total_ops": 3,
      "total_blocks": 2,
      "ssa_values": 0,
      "functions": 0,
      "modules": 0
    },
    {
      "region_depth": 2,
      "total_ops": 3,
      "total_blocks": 2,
      "ssa_values": 0,
      "functions": 0,
      "modules": 0
    },
    {
      "region_depth": 2,
      "total_ops": 4,
      "total_blocks": 2,
      "ssa_values": 0,
      "functions": 0,
      "modules": 0
    },
    {
      "region_depth": 2,
      "total_ops": 5,
      "total_blocks": 2,
      "ssa_values": 0,
      "functions": 0,
      "modules": 0
    },
    {
      "region_depth": 2,
      "total_ops": 3,
      "total_blocks": 2,
      "ssa_values": 0,
      "functions": 0,
      "modules": 0
    },
    {
      "region_depth": 2,
      "total_ops": 3,
      "total_blocks": 2,
      "ssa_values": 0,
      "functions": 0,
      "modules": 0
    },
    {
      "region_depth": 2,
      "total_ops": 3,
      "total_blocks": 2,
      "ssa_values": 0,
      "functions": 0,
      "modules": 0
    },
    {
      "region_depth": 2,
      "total_ops": 3,
      "total_blocks": 2,
      "ssa_values": 0,
      "functions": 0,
      "modules": 0
    },
    {
      "region_depth": 2,
      "total_ops": 3,
      "total_blocks": 2,
      "ssa_values": 0,
      "functions": 0,
      "modules": 0
    },
    {
      "region_depth": 2,
      "total_ops": 3,
      "total_blocks": 2,
      "ssa_values": 0,
      "functions": 0,
      "modules": 0
    },
    {
      "region_depth": 2,
      "total_ops": 4,
      "total_blocks": 2,
      "ssa_values": 0,
      "functions": 0,
      "modules": 0
    },
    {
      "region_depth": 2,
      "total_ops": 3,
      "total_blocks": 2,
      "ssa_values": 0,
      "functions": 0,
      "modules": 0
    },
    {
      "region_depth": 2,
      "total_ops": 3,
      "total_blocks": 2,
      "ssa_values": 0,
      "functions": 0,
      "modules": 0
    },
    {
      "region_depth": 2,
      "total_ops": 3,
      "total_blocks": 2,
      "ssa_values": 0,
      "functions": 0,
      "modules": 0
    },
    {
      "region_depth": 2,
      "total_ops": 3,
      "total_blocks": 2,
      "ssa_values": 0,
      "functions": 0,
      "modules": 0
    },
    {
      "region_depth": 2,
      "total_ops": 5,
      "total_blocks": 2,
      "ssa_values": 0,
      "functions": 0,
      "modules": 0
    },
    {
      "region_depth": 2,
      "total_ops": 3,
      "total_blocks": 2,
      "ssa_values": 0,
      "functions": 0,
      "modules": 0
    },
    {
      "region_depth": 2,
      "total_ops": 3,
      "total_blocks": 2,
      "ssa_values": 0,
      "functions": 0,
      "modules": 0
    },
    {
      "region_depth": 2,
      "total_ops": 3,
      "total_blocks": 2,
      "ssa_values": 0,
      "functions": 0,
      "modules": 0
    },
    {
      "region_depth": 2,
      "total_ops": 3,
      "total_blocks": 2,
      "ssa_values": 0,
      "functions": 0,
      "modules": 0
    },
    {
      "region_depth": 2,
      "total_ops": 4,
      "total_blocks": 2,
      "ssa_values": 0,
      "functions": 0,
      "modules": 0
    },
    {
      "region_depth": 2,
      "total_ops": 5,
      "total_blocks": 2,
      "ssa_values": 0,
      "functions": 0,
      "modules": 0
    },
    {
      "region_depth": 2,
      "total_ops": 3,
      "total_blocks": 2,
      "ssa_values": 0,
      "functions": 0,
      "modules": 0
    },
    {
      "region_depth": 2,
      "total_ops": 4,
      "total_blocks": 2,
      "ssa_values": 0,
      "functions": 0,
      "modules": 0
    },
    {
      "region_depth": 2,
      "total_ops": 3,
      "total_blocks": 2,
      "ssa_values": 0,
      "functions": 0,
      "modules": 0
    },
    {
      "region_depth": 2,
      "total_ops": 4,
      "total_blocks": 2,
      "ssa_values": 0,
      "functions": 0,
      "modules": 0
    },
    {
      "region_depth": 2,
      "total_ops": 3,
      "total_blocks": 2,
      "ssa_values": 0,
      "functions": 0,
      "modules": 0
    },
    {
      "region_depth": 2,
      "total_ops": 4,
      "total_blocks": 2,
      "ssa_values": 0,
      "functions": 0,
      "modules": 0
    },
    {
      "region_depth": 2,
      "total_ops": 3,
      "total_blocks": 2,
      "ssa_values": 0,
      "functions": 0,
      "modules": 0
    },
    {
      "region_depth": 2,
      "total_ops": 4,
      "total_blocks": 2,
      "ssa_values": 0,
      "functions": 0,
      "modules": 0
    },
    {
      "region_depth": 2,
      "total_ops": 4,
      "total_blocks": 2,
      "ssa_values": 0,
      "functions": 0,
      "modules": 0
    },
    {
      "region_depth": 2,
      "total_ops": 3,
      "total_blocks": 2,
      "ssa_values": 0,
      "functions": 0,
      "modules": 0
    },
    {
      "region_depth": 2,
      "total_ops": 4,
      "total_blocks": 2,
      "ssa_values": 0,
      "functions": 0,
      "modules": 0
    },
    {
      "region_depth": 2,
      "total_ops": 5,
      "total_blocks": 2,
      "ssa_values": 0,
      "functions": 0,
      "modules": 0
    },
    {
      "region_depth": 2,
      "total_ops": 3,
      "total_blocks": 2,
      "ssa_values": 0,
      "functions": 0,
      "modules": 0
    },
    {
      "region_depth": 2,
      "total_ops": 3,
      "total_blocks": 2,
      "ssa_values": 0,
      "functions": 0,
      "modules": 0
    },
    {
      "region_depth": 2,
      "total_ops": 5,
      "total_blocks": 2,
      "ssa_values": 0,
      "functions": 0,
      "modules": 0
    },
    {
      "region_depth": 2,
      "total_ops": 3,
      "total_blocks": 2,
      "ssa_values": 0,
      "functions": 0,
      "modules": 0
    },
    {
      "region_depth": 2,
      "total_ops": 3,
      "total_blocks": 2,
      "ssa_values": 0,
      "functions": 0,
      "modules": 0
    },
    {
      "region_depth": 2,
      "total_ops": 5,
      "total_blocks": 2,
      "ssa_values": 0,
      "functions": 0,
      "modules": 0
    },
    {
      "region_depth": 2,
      "total_ops": 4,
      "total_blocks": 2,
      "ssa_values": 0,
      "functions": 0,
      "modules": 0
    },
    {
      "region_depth": 2,
      "total_ops": 7,
      "total_blocks": 2,
      "ssa_values": 0,
      "functions": 0,
      "modules": 0
    },
    {
      "region_depth": 2,
      "total_ops": 3,
      "total_blocks": 2,
      "ssa_values": 0,
      "functions": 0,
      "modules": 0
    },
    {
      "region_depth": 2,
      "total_ops": 3,
      "total_blocks": 2,
      "ssa_values": 0,
      "functions": 0,
      "modules": 0
    },
    {
      "region_depth": 2,
      "total_ops": 6,
      "total_blocks": 2,
      "ssa_values": 0,
      "functions": 0,
      "modules": 0
    },
    {
      "region_depth": 2,
      "total_ops": 3,
      "total_blocks": 2,
      "ssa_values": 0,
      "functions": 0,
      "modules": 0
    },
    {
      "region_depth": 2,
      "total_ops": 3,
      "total_blocks": 2,
      "ssa_values": 0,
      "functions": 0,
      "modules": 0
    },
    {
      "region_depth": 2,
      "total_ops": 3,
      "total_blocks": 2,
      "ssa_values": 0,
      "functions": 0,
      "modules": 0
    },
    {
      "region_depth": 2,
      "total_ops": 5,
      "total_blocks": 2,
      "ssa_values": 0,
      "functions": 0,
      "modules": 0
    },
    {
      "region_depth": 2,
      "total_ops": 3,
      "total_blocks": 2,
      "ssa_values": 0,
      "functions": 0,
      "modules": 0
    },
    {
      "region_depth": 2,
      "total_ops": 6,
      "total_blocks": 2,
      "ssa_values": 0,
      "functions": 0,
      "modules": 0
    },
    {
      "region_depth": 2,
      "total_ops": 4,
      "total_blocks": 2,
      "ssa_values": 0,
      "functions": 0,
      "modules": 0
    },
    {
      "region_depth": 2,
      "total_ops": 4,
      "total_blocks": 2,
      "ssa_values": 0,
      "functions": 0,
      "modules": 0
    },
    {
      "region_depth": 2,
      "total_ops": 3,
      "total_blocks": 2,
      "ssa_values": 0,
      "functions": 0,
      "modules": 0
    },
    {
      "region_depth": 2,
      "total_ops": 3,
      "total_blocks": 2,
      "ssa_values": 0,
      "functions": 0,
      "modules": 0
    },
    {
      "region_depth": 2,
      "total_ops": 7,
      "total_blocks": 2,
      "ssa_values": 0,
      "functions": 0,
      "modules": 0
    },
    {
      "region_depth": 2,
      "total_ops": 4,
      "total_blocks": 2,
      "ssa_values": 0,
      "functions": 0,
      "modules": 0
    },
    {
      "region_depth": 3,
      "total_ops": 11,
      "total_blocks": 3,
      "ssa_values": 0,
      "functions": 0,
      "modules": 0
    },
    {
      "region_depth": 2,
      "total_ops": 4,
      "total_blocks": 2,
      "ssa_values": 0,
      "functions": 0,
      "modules": 0
    },
    {
      "region_depth": 2,
      "total_ops": 4,
      "total_blocks": 2,
      "ssa_values": 0,
      "functions": 0,
      "modules": 0
    },
    {
      "region_depth": 2,
      "total_ops": 3,
      "total_blocks": 2,
      "ssa_values": 0,
      "functions": 0,
      "modules": 0
    },
    {
      "region_depth": 2,
      "total_ops": 3,
      "total_blocks": 2,
      "ssa_values": 0,
      "functions": 0,
      "modules": 0
    },
    {
      "region_depth": 2,
      "total_ops": 5,
      "total_blocks": 2,
      "ssa_values": 0,
      "functions": 0,
      "modules": 0
    },
    {
      "region_depth": 2,
      "total_ops": 3,
      "total_blocks": 2,
      "ssa_values": 0,
      "functions": 0,
      "modules": 0
    },
    {
      "region_depth": 2,
      "total_ops": 10,
      "total_blocks": 2,
      "ssa_values": 0,
      "functions": 0,
      "modules": 0
    },
    {
      "region_depth": 2,
      "total_ops": 3,
      "total_blocks": 2,
      "ssa_values": 0,
      "functions": 0,
      "modules": 0
    },
    {
      "region_depth": 2,
      "total_ops": 7,
      "total_blocks": 2,
      "ssa_values": 0,
      "functions": 0,
      "modules": 0
    },
    {
      "region_depth": 2,
      "total_ops": 3,
      "total_blocks": 2,
      "ssa_values": 0,
      "functions": 0,
      "modules": 0
    },
    {
      "region_depth": 2,
      "total_ops": 3,
      "total_blocks": 2,
      "ssa_values": 0,
      "functions": 0,
      "modules": 0
    },
    {
      "region_depth": 2,
      "total_ops": 5,
      "total_blocks": 2,
      "ssa_values": 0,
      "functions": 0,
      "modules": 0
    },
    {
      "region_depth": 2,
      "total_ops": 3,
      "total_blocks": 2,
      "ssa_values": 0,
      "functions": 0,
      "modules": 0
    },
    {
      "region_depth": 2,
      "total_ops": 3,
      "total_blocks": 2,
      "ssa_values": 0,
      "functions": 0,
      "modules": 0
    },
    {
      "region_depth": 2,
      "total_ops": 6,
      "total_blocks": 2,
      "ssa_values": 0,
      "functions": 0,
      "modules": 0
    },
    {
      "region_depth": 2,
      "total_ops": 4,
      "total_blocks": 2,
      "ssa_values": 0,
      "functions": 0,
      "modules": 0
    },
    {
      "region_depth": 2,
      "total_ops": 3,
      "total_blocks": 2,
      "ssa_values": 0,
      "functions": 0,
      "modules": 0
    },
    {
      "region_depth": 2,
      "total_ops": 4,
      "total_blocks": 2,
      "ssa_values": 0,
      "functions": 0,
      "modules": 0
    },
    {
      "region_depth": 2,
      "total_ops": 4,
      "total_blocks": 2,
      "ssa_values": 0,
      "functions": 0,
      "modules": 0
    },
    {
      "region_depth": 2,
      "total_ops": 4,
      "total_blocks": 2,
      "ssa_values": 0,
      "functions": 0,
      "modules": 0
    },
    {
      "region_depth": 2,
      "total_ops": 3,
      "total_blocks": 2,
      "ssa_values": 0,
      "functions": 0,
      "modules": 0
    },
    {
      "region_depth": 2,
      "total_ops": 3,
      "total_blocks": 2,
      "ssa_values": 0,
      "functions": 0,
      "modules": 0
    },
    {
      "region_depth": 2,
      "total_ops": 4,
      "total_blocks": 2,
      "ssa_values": 0,
      "functions": 0,
      "modules": 0
    },
    {
      "region_depth": 2,
      "total_ops": 3,
      "total_blocks": 2,
      "ssa_values": 0,
      "functions": 0,
      "modules": 0
    },
    {
      "region_depth": 2,
      "total_ops": 3,
      "total_blocks": 2,
      "ssa_values": 0,
      "functions": 0,
      "modules": 0
    },
    {
      "region_depth": 2,
      "total_ops": 4,
      "total_blocks": 2,
      "ssa_values": 0,
      "functions": 0,
      "modules": 0
    },
    {
      "region_depth": 2,
      "total_ops": 6,
      "total_blocks": 2,
      "ssa_values": 0,
      "functions": 0,
      "modules": 0
    },
    {
      "region_depth": 2,
      "total_ops": 3,
      "total_blocks": 2,
      "ssa_values": 0,
      "functions": 0,
      "modules": 0
    },
    {
      "region_depth": 2,
      "total_ops": 6,
      "total_blocks": 2,
      "ssa_values": 0,
      "functions": 0,
      "modules": 0
    },
    {
      "region_depth": 2,
      "total_ops": 3,
      "total_blocks": 2,
      "ssa_values": 0,
      "functions": 0,
      "modules": 0
    },
    {
      "region_depth": 2,
      "total_ops": 3,
      "total_blocks": 2,
      "ssa_values": 0,
      "functions": 0,
      "modules": 0
    },
    {
      "region_depth": 2,
      "total_ops": 14,
      "total_blocks": 2,
      "ssa_values": 0,
      "functions": 0,
      "modules": 0
    },
    {
      "region_depth": 2,
      "total_ops": 3,
      "total_blocks": 2,
      "ssa_values": 0,
      "functions": 0,
      "modules": 0
    },
    {
      "region_depth": 2,
      "total_ops": 3,
      "total_blocks": 2,
      "ssa_values": 0,
      "functions": 0,
      "modules": 0
    },
    {
      "region_depth": 2,
      "total_ops": 3,
      "total_blocks": 2,
      "ssa_values": 0,
      "functions": 0,
      "modules": 0
    },
    {
      "region_depth": 2,
      "total_ops": 3,
      "total_blocks": 2,
      "ssa_values": 0,
      "functions": 0,
      "modules": 0
    },
    {
      "region_depth": 2,
      "total_ops": 3,
      "total_blocks": 2,
      "ssa_values": 0,
      "functions": 0,
      "modules": 0
    },
    {
      "region_depth": 2,
      "total_ops": 3,
      "total_blocks": 2,
      "ssa_values": 0,
      "functions": 0,
      "modules": 0
    },
    {
      "region_depth": 2,
      "total_ops": 4,
      "total_blocks": 2,
      "ssa_values": 0,
      "functions": 0,
      "modules": 0
    },
    {
      "region_depth": 2,
      "total_ops": 4,
      "total_blocks": 2,
      "ssa_values": 0,
      "functions": 0,
      "modules": 0
    },
    {
      "region_depth": 2,
      "total_ops": 4,
      "total_blocks": 2,
      "ssa_values": 0,
      "functions": 0,
      "modules": 0
    },
    {
      "region_depth": 2,
      "total_ops": 4,
      "total_blocks": 2,
      "ssa_values": 0,
      "functions": 0,
      "modules": 0
    },
    {
      "region_depth": 2,
      "total_ops": 4,
      "total_blocks": 2,
      "ssa_values": 0,
      "functions": 0,
      "modules": 0
    },
    {
      "region_depth": 2,
      "total_ops": 4,
      "total_blocks": 2,
      "ssa_values": 0,
      "functions": 0,
      "modules": 0
    },
    {
      "region_depth": 2,
      "total_ops": 5,
      "total_blocks": 2,
      "ssa_values": 0,
      "functions": 0,
      "modules": 0
    },
    {
      "region_depth": 2,
      "total_ops": 3,
      "total_blocks": 2,
      "ssa_values": 0,
      "functions": 0,
      "modules": 0
    },
    {
      "region_depth": 2,
      "total_ops": 5,
      "total_blocks": 2,
      "ssa_values": 0,
      "functions": 0,
      "modules": 0
    },
    {
      "region_depth": 2,
      "total_ops": 3,
      "total_blocks": 2,
      "ssa_values": 0,
      "functions": 0,
      "modules": 0
    },
    {
      "region_depth": 2,
      "total_ops": 8,
      "total_blocks": 3,
      "ssa_values": 0,
      "functions": 0,
      "modules": 0
    },
    {
      "region_depth": 2,
      "total_ops": 3,
      "total_blocks": 2,
      "ssa_values": 0,
      "functions": 0,
      "modules": 0
    },
    {
      "region_depth": 2,
      "total_ops": 4,
      "total_blocks": 2,
      "ssa_values": 0,
      "functions": 0,
      "modules": 0
    },
    {
      "region_depth": 2,
      "total_ops": 6,
      "total_blocks": 2,
      "ssa_values": 0,
      "functions": 0,
      "modules": 0
    },
    {
      "region_depth": 2,
      "total_ops": 3,
      "total_blocks": 2,
      "ssa_values": 0,
      "functions": 0,
      "modules": 0
    },
    {
      "region_depth": 2,
      "total_ops": 3,
      "total_blocks": 2,
      "ssa_values": 0,
      "functions": 0,
      "modules": 0
    },
    {
      "region_depth": 2,
      "total_ops": 5,
      "total_blocks": 2,
      "ssa_values": 0,
      "functions": 0,
      "modules": 0
    },
    {
      "region_depth": 2,
      "total_ops": 4,
      "total_blocks": 2,
      "ssa_values": 0,
      "functions": 0,
      "modules": 0
    },
    {
      "region_depth": 2,
      "total_ops": 7,
      "total_blocks": 2,
      "ssa_values": 0,
      "functions": 0,
      "modules": 0
    },
    {
      "region_depth": 2,
      "total_ops": 3,
      "total_blocks": 2,
      "ssa_values": 0,
      "functions": 0,
      "modules": 0
    },
    {
      "region_depth": 2,
      "total_ops": 3,
      "total_blocks": 2,
      "ssa_values": 0,
      "functions": 0,
      "modules": 0
    },
    {
      "region_depth": 2,
      "total_ops": 3,
      "total_blocks": 2,
      "ssa_values": 0,
      "functions": 0,
      "modules": 0
    },
    {
      "region_depth": 2,
      "total_ops": 3,
      "total_blocks": 2,
      "ssa_values": 0,
      "functions": 0,
      "modules": 0
    },
    {
      "region_depth": 2,
      "total_ops": 3,
…
    "krnl_to_affine_with_canonicalize-1.mlir: No terminal matches 'a' in the current parser context, at line 4 col 57\n\n.alloca\"(%arg0) <{operandSe",
    "zhigh-combine-3.mlir: No terminal matches ',' in the current parser context, at line 4 col 70\n\n : (tensor<5x10xf32>) -> te",
    "gru-2-1.mlir: No terminal matches ',' in the current parser context, at line 2 col 52\n\nc\"() <{function_type = (ten",
    "krnl_region_lowering-0.mlir: No terminal matches 'a' in the current parser context, at line 4 col 51\n\nmemref.alloc\"() <{operandSe",
    "add-1-1.mlir: No terminal matches ',' in the current parser context, at line 2 col 52\n\nc\"() <{function_type = (ten",
    "zhigh-combine-12.mlir: No terminal matches ',' in the current parser context, at line 2 col 52\n\nc\"() <{function_type = (ten",
    "buffer_copy-9.mlir: No terminal matches 'a' in the current parser context, at line 4 col 52\n\nemref.alloca\"() <{operandSe",
    "min-2-0.mlir: No terminal matches ',' in the current parser context, at line 5 col 85\n\n (tensor<10x10xf32>) -> ten",
    "zhigh-layout-propagation-9.mlir: No terminal matches ',' in the current parser context, at line 2 col 56\n\n <{function_type = (tensor<",
    "constprop-1.mlir: No terminal matches ',' in the current parser context, at line 2 col 53\n\n\"() <{function_type = () ->",
    "fold-std-alloc-1.mlir: No terminal matches 'a' in the current parser context, at line 6 col 51\n\nmemref.alloc\"() <{operandSe",
    "zlow-rewrite-6.mlir: No terminal matches 'a' in the current parser context, at line 4 col 73\n\nnment = 16 : i64, operandSe",
    "onnx-on-ztensor-2.mlir: No terminal matches ',' in the current parser context, at line 2 col 56\n\n <{function_type = (tensor<",
    "krnl_random_normal_lowering-0.mlir: No terminal matches 'a' in the current parser context, at line 3 col 73\n\nnment = 16 : i64, operandSe",
    "onnx_lowering_category_mapper-2.mlir: No terminal matches '.' in the current parser context, at line 2 col 72\n\n = (tensor<2x2xi64>) -> ten",
    "mul-1-0.mlir: No terminal matches ',' in the current parser context, at line 2 col 52\n\nc\"() <{function_type = (ten",
    "krnl_sequence_lowering-1.mlir: No terminal matches 'm' in the current parser context, at line 2 col 62\n\nction_type = (memref<?x3xf3",
    "lower-all-to-llvm-typed-pointer-15.mlir: No terminal matches 'a' in the current parser context, at line 3 col 51\n\nmemref.alloc\"() <{operandSe",
    "krnl_C_library_function_lowering-3.mlir: No terminal matches 'a' in the current parser context, at line 5 col 73\n\nnment = 16 : i64, operandSe",
    "zhigh-clip-to-dlfloat-range-2.mlir: No terminal matches ',' in the current parser context, at line 2 col 52\n\nc\"() <{function_type = (ten",
    "zhigh-combine-1.mlir: No terminal matches ',' in the current parser context, at line 4 col 72\n\n (tensor<10x10xf32>) -> ten",
    "lstm-2-1.mlir: No terminal matches ',' in the current parser context, at line 2 col 52\n\nc\"() <{function_type = (ten",
    "krnl_math_function_lowering-4.mlir: No terminal matches 'a' in the current parser context, at line 6 col 51\n\nmemref.alloc\"() <{operandSe",
    "elementwise-25.mlir: No terminal matches ',' in the current parser context, at line 2 col 52\n\nc\"() <{function_type = (ten",
    "krnl_math_function_lowering-5.mlir: No terminal matches 'a' in the current parser context, at line 6 col 51\n\nmemref.alloc\"() <{operandSe",
    "zhigh-combine-11.mlir: No terminal matches ',' in the current parser context, at line 2 col 56\n\n <{function_type = (tensor<",
    "onnx_constprop-106.mlir: No terminal matches 'f' in the current parser context, at line 2 col 52\n\nc\"() <{function_type = () -",
    "dyn-dim-analysis-2.mlir: No terminal matches ',' in the current parser context, at line 5 col 91\n\nnsor<?x?x?x?xf32>) -> tenso",
    "constprop-6.mlir: No terminal matches ',' in the current parser context, at line 2 col 59\n\nfunction_type = () -> tenso",
    "meanreduce-0.mlir: No terminal matches ',' in the current parser context, at line 2 col 54\n\n() <{function_type = (tenso",
    "krnl_sequence_lowering-2.mlir: No terminal matches 'm' in the current parser context, at line 2 col 45\n\nunc.func\"() <{function_type",
    "pool-1.mlir: No terminal matches ',' in the current parser context, at line 2 col 56\n\n <{function_type = (tensor<",
    "lower-all-to-llvm-6.mlir: No terminal matches 'a' in the current parser context, at line 3 col 51\n\nmemref.alloc\"() <{operandSe",
    "conv-2-4.mlir: No terminal matches ',' in the current parser context, at line 2 col 56\n\n <{function_type = (tensor<",
    "constprop-8.mlir: No terminal matches ',' in the current parser context, at line 2 col 59\n\nfunction_type = () -> tenso",
    "lower-all-to-llvm-2.mlir: No terminal matches 'a' in the current parser context, at line 3 col 51\n\nmemref.alloc\"() <{operandSe",
    "min-1-1.mlir: No terminal matches ',' in the current parser context, at line 2 col 52\n\nc\"() <{function_type = (ten",
    "elementwise-19.mlir: No terminal matches ',' in the current parser context, at line 2 col 52\n\nc\"() <{function_type = (ten",
    "conv-2-2.mlir: No terminal matches ',' in the current parser context, at line 2 col 54\n\n() <{function_type = (tenso",
    "Constant-2.mlir: No terminal matches '.' in the current parser context, at line 2 col 55\n\n) <{function_type = () -> t",
    "module_op-1-0.mlir: No terminal matches '}' in the current parser context, at line 3 col 1\n\n}) : () -> ()\n^\nExpected one",
    "lstm-2.mlir: No terminal matches ',' in the current parser context, at line 2 col 52\n\nc\"() <{function_type = (ten",
    "Constant-3.mlir: No terminal matches '.' in the current parser context, at line 2 col 55\n\n) <{function_type = () -> t",
    "krnl_math_function_lowering-8.mlir: No terminal matches 'a' in the current parser context, at line 6 col 51\n\nmemref.alloc\"() <{operandSe",
    "zhigh-layout-propagation-10.mlir: No terminal matches ',' in the current parser context, at line 2 col 56\n\n <{function_type = (tensor<",
    "buffer_copy-17.mlir: No terminal matches 'a' in the current parser context, at line 4 col 52\n\nemref.alloca\"() <{operandSe",
    "emit-zhighir-0.mlir: No terminal matches '_' in the current parser context, at line 6 col 42\n\n   %2 = \"onnx.Constant\"() {",
    "onnx-on-ztensor-0.mlir: No terminal matches ',' in the current parser context, at line 2 col 54\n\n() <{function_type = (tenso",
    "onnx_structure-0.mlir: No terminal matches '.' in the current parser context, at line 7 col 54\n\n() <{function_type = (tenso",
    "onnx_canonicalization-102.mlir: No terminal matches '>' in the current parser context, at line 5 col 43\n\n  %2 = \"onnx.Constant\"() {v",
    "elementwise-8.mlir: No terminal matches ',' in the current parser context, at line 2 col 52\n\nc\"() <{function_type = (ten",
    "pool-2.mlir: No terminal matches ',' in the current parser context, at line 2 col 54\n\n() <{function_type = (tenso",
    "krnl_to_llvm_omtensor_ownership-2.mlir: No terminal matches 'a' in the current parser context, at line 3 col 51\n\nmemref.alloc\"() <{operandSe",
    "mul-1-1.mlir: No terminal matches ',' in the current parser context, at line 2 col 52\n\nc\"() <{function_type = (ten",
    "zlow-rewrite-0.mlir: No terminal matches 'f' in the current parser context, at line 1 col 38\n\n#map = affine_map<(d0, d1) ",
    "zhigh-layout-propagation-0.mlir: No terminal matches ',' in the current parser context, at line 2 col 58\n\n{function_type = (tensor<1x",
    "onnx_canonicalization-86.mlir: No terminal matches 'f' in the current parser context, at line 1 col 35\n\n#map = affine_map<(d0, d1) ",
    "zhigh-combine-5.mlir: No terminal matches ',' in the current parser context, at line 2 col 60\n\nunction_type = (tensor<1x10",
    "pool-0.mlir: No terminal matches ',' in the current parser context, at line 2 col 56\n\n <{function_type = (tensor<",
    "zlow-rewrite-7.mlir: No terminal matches 'a' in the current parser context, at line 4 col 73\n\nnment = 16 : i64, operandSe",
    "softmax-1-0.mlir: No terminal matches ',' in the current parser context, at line 2 col 52\n\nc\"() <{function_type = (ten",
    "krnl_disconnect_dim_from_alloc-1.mlir: No terminal matches 'a' in the current parser context, at line 8 col 53\n\nmref.alloc\"(%2) <{operandSe",
    "buffer_copy-12.mlir: No terminal matches 'a' in the current parser context, at line 4 col 52\n\nemref.alloca\"() <{operandSe",
    "onnx_lowering_category_mapper-3.mlir: No terminal matches '.' in the current parser context, at line 2 col 54\n\n() <{function_type = (tenso",
    "lower-all-to-llvm-typed-pointer-18.mlir: No terminal matches 'a' in the current parser context, at line 4 col 75\n\nent = 4096 : i64, operandSe",
    "matmul-2.mlir: No terminal matches ',' in the current parser context, at line 2 col 52\n\nc\"() <{function_type = (ten",
    "onnx_shape_inference-274.mlir: No terminal matches '=' in the current parser context, at line 4 col 82\n\narget_layout = #onnx.layout",
    "pool-2-2.mlir: No terminal matches ',' in the current parser context, at line 2 col 54\n\n() <{function_type = (tenso",
    "Constant-1.mlir: No terminal matches '.' in the current parser context, at line 2 col 53\n\n\"() <{function_type = () ->",
    "normalize-memref-2.mlir: No terminal matches 'f' in the current parser context, at line 1 col 34\n\n#map = affine_map<(d0) -> (",
    "krnl_sequence_lowering-3.mlir: No terminal matches 'm' in the current parser context, at line 2 col 45\n\nunc.func\"() <{function_type",
    "matmul-2-0.mlir: No terminal matches ',' in the current parser context, at line 2 col 50\n\nunc\"() <{function_type = (t",
    "lower-all-to-llvm-21.mlir: No terminal matches 'a' in the current parser context, at line 4 col 75\n\nent = 4096 : i64, operandSe",
    "pool-2-6.mlir: No terminal matches ',' in the current parser context, at line 2 col 56\n\n <{function_type = (tensor<",
    "lower-all-to-llvm-typed-pointer-21.mlir: No terminal matches 'a' in the current parser context, at line 4 col 75\n\nent = 4096 : i64, operandSe",
    "pool-2-9.mlir: No terminal matches ',' in the current parser context, at line 2 col 56\n\n <{function_type = (tensor<",
    "lower-all-to-llvm-19.mlir: No terminal matches 'a' in the current parser context, at line 4 col 75\n\nent = 4096 : i64, operandSe",
    "lstm-1.mlir: No terminal matches ',' in the current parser context, at line 2 col 52\n\nc\"() <{function_type = (ten",
    "stickified-constant-0.mlir: No terminal matches '_' in the current parser context, at line 3 col 77\n\n) {alignment = 4096 : i64, ",
    "lower-all-to-llvm-10.mlir: No terminal matches 'a' in the current parser context, at line 3 col 51\n\nmemref.alloc\"() <{operandSe",
    "lstm-2-3.mlir: No terminal matches ',' in the current parser context, at line 2 col 52\n\nc\"() <{function_type = (ten",
    "block-2.mlir: No terminal matches 'a' in the current parser context, at line 19 col 73\n\nnment = 16 : i64, operandS",
    "onnx_constprop-82.mlir: No terminal matches '>' in the current parser context, at line 3 col 43\n\n  %0 = \"onnx.Constant\"() {v",
    "max-1-0.mlir: No terminal matches ',' in the current parser context, at line 2 col 52\n\nc\"() <{function_type = (ten",
    "constprop-15.mlir: No terminal matches ',' in the current parser context, at line 2 col 53\n\n\"() <{function_type = () ->",
    "min-1-0.mlir: No terminal matches ',' in the current parser context, at line 2 col 52\n\nc\"() <{function_type = (ten",
    "matmul-2-2.mlir: No terminal matches ',' in the current parser context, at line 2 col 52\n\nc\"() <{function_type = (ten",
    "lower-all-to-llvm-constant-shape-1.mlir: No terminal matches 'a' in the current parser context, at line 4 col 75\n\nent = 4096 : i64, operandSe",
    "conv-2.mlir: No terminal matches ',' in the current parser context, at line 2 col 54\n\n() <{function_type = (tenso",
    "lower-all-to-llvm-16.mlir: No terminal matches 'a' in the current parser context, at line 3 col 51\n\nmemref.alloc\"() <{operandSe",
    "lower-all-to-llvm-typed-pointer-27.mlir: No terminal matches 'a' in the current parser context, at line 3 col 75\n\nent = 4096 : i64, operandSe",
    "conv-2-0.mlir: No terminal matches ',' in the current parser context, at line 2 col 56\n\n <{function_type = (tensor<",
    "buffer_copy-3.mlir: No terminal matches 'a' in the current parser context, at line 4 col 52\n\nemref.alloca\"() <{operandSe",
    "elementwise-20.mlir: No terminal matches ',' in the current parser context, at line 2 col 52\n\nc\"() <{function_type = (ten",
    "softmax-1-1.mlir: No terminal matches ',' in the current parser context, at line 2 col 52\n\nc\"() <{function_type = (ten",
    "buffer_copy-20.mlir: No terminal matches 'a' in the current parser context, at line 4 col 52\n\nemref.alloca\"() <{operandSe",
    "onnx_shape_inference-275.mlir: No terminal matches 'f' in the current parser context, at line 1 col 35\n\n#map = affine_map<(d0, d1) ",
    "dyn-dim-analysis-1.mlir: No terminal matches ',' in the current parser context, at line 5 col 85\n\n (tensor<?x3x?xf32>) -> ten",
    "lower-all-to-llvm-typed-pointer-12.mlir: No terminal matches 'a' in the current parser context, at line 3 col 51\n\nmemref.alloc\"() <{operandSe",
    "conv-2-3.mlir: No terminal matches ',' in the current parser context, at line 2 col 54\n\n() <{function_type = (tenso",
    "lstm-2-4.mlir: No terminal matches ',' in the current parser context, at line 2 col 52\n\nc\"() <{function_type = (ten",
    "zhigh-combine-2.mlir: No terminal matches ',' in the current parser context, at line 4 col 76\n\nnsor<5x10x10xf32>) -> tenso",
    "zhigh-clip-to-dlfloat-range-1.mlir: No terminal matches ',' in the current parser context, at line 5 col 86\n\n (tensor<3x4x5xf32>) -> ten",
    "add-1-0.mlir: No terminal matches ',' in the current parser context, at line 2 col 52\n\nc\"() <{function_type = (ten",
    "zhigh-combine-9.mlir: No terminal matches ',' in the current parser context, at line 2 col 54\n\n() <{function_type = (tenso",
    "zhigh-combine-8.mlir: No terminal matches ',' in the current parser context, at line 2 col 54\n\n() <{function_type = (tenso",
    "zhigh-combine-0.mlir: No terminal matches ',' in the current parser context, at line 4 col 72\n\n (tensor<10x10xf32>) -> ten",
    "buffer_copy-15.mlir: No terminal matches 'a' in the current parser context, at line 6 col 52\n\nemref.alloca\"() <{operandSe",
    "meanreduce-1-0.mlir: No terminal matches ',' in the current parser context, at line 2 col 54\n\n() <{function_type = (tenso",
    "constprop-2.mlir: No terminal matches ',' in the current parser context, at line 4 col 81\n\n\"} : (tensor<2x3xf32>) -> t",
    "lower-all-to-llvm-typed-pointer-22.mlir: No terminal matches 'a' in the current parser context, at line 3 col 75\n\nent = 4096 : i64, operandSe",
    "krnl_math_function_lowering-3.mlir: No terminal matches 'a' in the current parser context, at line 6 col 51\n\nmemref.alloc\"() <{operandSe",
    "zlow-rewrite-15.mlir: No terminal matches 'f' in the current parser context, at line 1 col 47\n\n affine_map<(d0, d1, d2, d3",
    "Elementwise_with_canonicalize-19.mlir: No terminal matches '.' in the current parser context, at line 2 col 52\n\nc\"() <{function_type = (ten",
    "lower-all-to-llvm-12.mlir: No terminal matches 'a' in the current parser context, at line 3 col 51\n\nmemref.alloc\"() <{operandSe",
    "elementwise-18.mlir: No terminal matches ',' in the current parser context, at line 2 col 52\n\nc\"() <{function_type = (ten",
    "lower-all-to-llvm-23.mlir: No terminal matches 'a' in the current parser context, at line 3 col 75\n\nent = 4096 : i64, operandSe",
    "imperfectly_nested_stmts-0.mlir: No terminal matches 'a' in the current parser context, at line 9 col 53\n\nmemref.alloc\"() <{operandSe",
    "pool-2-0.mlir: No terminal matches ',' in the current parser context, at line 2 col 56\n\n <{function_type = (tensor<",
    "onnx_shape_inference-239.mlir: No terminal matches '.' in the current parser context, at line 2 col 53\n\n\"() <{function_type = (tens",
    "onnx_shape_inference-241.mlir: No terminal matches '.' in the current parser context, at line 2 col 55\n\n) <{function_type = (tensor",
    "max-2-0.mlir: No terminal matches ',' in the current parser context, at line 5 col 85\n\n (tensor<10x10xf32>) -> ten",
    "lower-all-to-llvm-typed-pointer-17.mlir: No terminal matches 'a' in the current parser context, at line 3 col 51\n\nmemref.alloc\"() <{operandSe",
    "meanreduce-1-1.mlir: No terminal matches ',' in the current parser context, at line 2 col 54\n\n() <{function_type = (tenso",
    "krnl_global_elision-1.mlir: No terminal matches '_' in the current parser context, at line 3 col 78\n\nstant_0\", shape = [1, 80], ",
    "elementwise-22.mlir: No terminal matches ',' in the current parser context, at line 2 col 52\n\nc\"() <{function_type = (ten",
    "zlow-rewrite-12.mlir: No terminal matches 'f' in the current parser context, at line 1 col 38\n\n#map = affine_map<(d0, d1) ",
    "pool-5.mlir: No terminal matches ',' in the current parser context, at line 2 col 56\n\n <{function_type = (tensor<",
    "matmul-0.mlir: No terminal matches ',' in the current parser context, at line 2 col 50\n\nunc\"() <{function_type = (t",
    "lstm-2-7.mlir: No terminal matches ',' in the current parser context, at line 2 col 52\n\nc\"() <{function_type = (ten",
    "lower-all-to-llvm-13.mlir: No terminal matches 'a' in the current parser context, at line 3 col 51\n\nmemref.alloc\"() <{operandSe",
    "conv-2-1.mlir: No terminal matches ',' in the current parser context, at line 2 col 56\n\n <{function_type = (tensor<",
    "elementwise-6.mlir: No terminal matches ',' in the current parser context, at line 2 col 52\n\nc\"() <{function_type = (ten",
    "lower-all-to-llvm-14.mlir: No terminal matches 'a' in the current parser context, at line 3 col 51\n\nmemref.alloc\"() <{operandSe",
    "buffer_copy-11.mlir: No terminal matches 'a' in the current parser context, at line 4 col 52\n\nemref.alloca\"() <{operandSe",
    "zlow-rewrite-8.mlir: No terminal matches 'f' in the current parser context, at line 1 col 38\n\n#map = affine_map<(d0, d1) ",
    "buffer_copy-8.mlir: No terminal matches 'a' in the current parser context, at line 4 col 52\n\nemref.alloca\"() <{operandSe",
    "gru-2.mlir: No terminal matches ',' in the current parser context, at line 2 col 52\n\nc\"() <{function_type = (ten",
    "krnl_shape_lowering-0.mlir: No terminal matches 'a' in the current parser context, at line 7 col 53\n\nmref.alloc\"(%2) <{operandSe",
    "gru-4.mlir: No terminal matches ',' in the current parser context, at line 2 col 52\n\nc\"() <{function_type = (ten",
    "sigmoid-1-1.mlir: No terminal matches ',' in the current parser context, at line 2 col 52\n\nc\"() <{function_type = (ten",
    "lower-all-to-llvm-1.mlir: No terminal matches 'a' in the current parser context, at line 3 col 51\n\nmemref.alloc\"() <{operandSe",
    "lower-all-to-llvm-typed-pointer-16.mlir: No terminal matches 'a' in the current parser context, at line 3 col 51\n\nmemref.alloc\"() <{operandSe",
    "matmul-1.mlir: No terminal matches ',' in the current parser context, at line 2 col 52\n\nc\"() <{function_type = (ten",
    "elementwise-15.mlir: No terminal matches ',' in the current parser context, at line 2 col 52\n\nc\"() <{function_type = (ten",
    "elementwise-23.mlir: No terminal matches ',' in the current parser context, at line 2 col 52\n\nc\"() <{function_type = (ten",
    "normalize-memref-1.mlir: No terminal matches 'f' in the current parser context, at line 1 col 38\n\n#map = affine_map<(d0, d1) ",
    "zlow-rewrite-13.mlir: No terminal matches 'f' in the current parser context, at line 1 col 38\n\n#map = affine_map<(d0, d1) ",
    "buffer_copy-6.mlir: No terminal matches 'a' in the current parser context, at line 4 col 52\n\nemref.alloca\"() <{operandSe",
    "constprop-10.mlir: No terminal matches ',' in the current parser context, at line 2 col 55\n\n) <{function_type = () -> t",
    "conv-3.mlir: No terminal matches ',' in the current parser context, at line 2 col 54\n\n() <{function_type = (tenso",
    "dyn-dim-analysis-3.mlir: No terminal matches ',' in the current parser context, at line 5 col 86\n\n (tensor<?x?x?xf32>) -> ten",
    "krnl_category_mapper-3.mlir: No terminal matches '.' in the current parser context, at line 4 col 52\n\nc\"() <{function_type = (mem",
    "lower-all-to-llvm-typed-pointer-5.mlir: No terminal matches 'a' in the current parser context, at line 3 col 51\n\nmemref.alloc\"() <{operandSe",
    "krnl_math_function_lowering-2.mlir: No terminal matches 'a' in the current parser context, at line 6 col 51\n\nmemref.alloc\"() <{operandSe",
    "zlow-rewrite-5.mlir: No terminal matches 'f' in the current parser context, at line 1 col 38\n\n#map = affine_map<(d0, d1) ",
    "matmul-3.mlir: No terminal matches ',' in the current parser context, at line 2 col 50\n\nunc\"() <{function_type = (t",
    "lower-all-to-llvm-typed-pointer-8.mlir: No terminal matches 'a' in the current parser context, at line 3 col 51\n\nmemref.alloc\"() <{operandSe",
    "zhigh-clip-to-dlfloat-range-4.mlir: No terminal matches ',' in the current parser context, at line 2 col 52\n\nc\"() <{function_type = (ten",
    "lower-all-to-llvm-28.mlir: No terminal matches 'a' in the current parser context, at line 3 col 75\n\nent = 4096 : i64, operandSe",
    "onnx_constprop-107.mlir: No terminal matches 'f' in the current parser context, at line 2 col 52\n\nc\"() <{function_type = () -",
    "krnl_normalization-0.mlir: No terminal matches 'f' in the current parser context, at line 1 col 51\n\nine_map<(d0, d1, d2, d3) ->",
    "pool-2-8.mlir: No terminal matches ',' in the current parser context, at line 2 col 54\n\n() <{function_type = (tenso",
    "onnx_constprop-85.mlir: No terminal matches '>' in the current parser context, at line 3 col 43\n\n  %0 = \"onnx.Constant\"() {v",
    "constprop-12.mlir: No terminal matches ',' in the current parser context, at line 2 col 55\n\n) <{function_type = () -> t",
    "lower-all-to-llvm-typed-pointer-14.mlir: No terminal matches 'a' in the current parser context, at line 3 col 51\n\nmemref.alloc\"() <{operandSe",
    "lower-all-to-llvm-typed-pointer-13.mlir: No terminal matches 'a' in the current parser context, at line 3 col 51\n\nmemref.alloc\"() <{operandSe",
    "elementwise-21.mlir: No terminal matches ',' in the current parser context, at line 2 col 52\n\nc\"() <{function_type = (ten",
    "zlow-rewrite-3.mlir: No terminal matches 'f' in the current parser context, at line 1 col 38\n\n#map = affine_map<(d0, d1) ",
    "krnl_to_affine-2.mlir: No terminal matches 'a' in the current parser context, at line 6 col 51\n\nmemref.alloc\"() <{operandSe",
    "zhigh-decompose-stick-unstick-1.mlir: No terminal matches ',' in the current parser context, at line 4 col 94\n\nnsor<1x3x5x?xf32>) -> tenso",
    "conv-0.mlir: No terminal matches ',' in the current parser context, at line 2 col 56\n\n <{function_type = (tensor<",
    "pool-2-4.mlir: No terminal matches ',' in the current parser context, at line 2 col 56\n\n <{function_type = (tensor<",
    "stickified-constant-of-shape-0.mlir: No terminal matches ',' in the current parser context, at line 2 col 72\n\n = (tensor<?x10xf16>) -> te",
    "krnl_to_affine-1.mlir: No terminal matches 'a' in the current parser context, at line 6 col 51\n\nmemref.alloc\"() <{operandSe",
    "lower-all-to-llvm-typed-pointer-24.mlir: No terminal matches 'a' in the current parser context, at line 3 col 75\n\nent = 4096 : i64, operandSe",
    "imperfectly_nested_stmts-1.mlir: No terminal matches 'a' in the current parser context, at line 12 col 53\n\nmemref.alloc\"() <{operandS",
    "pool-2-7.mlir: No terminal matches ',' in the current parser context, at line 2 col 54\n\n() <{function_type = (tenso",
    "krnl_category_mapper-5.mlir: No terminal matches '.' in the current parser context, at line 2 col 57\n\n<{function_type = () -> mem",
    "lower-all-to-llvm-26.mlir: No terminal matches 'a' in the current parser context, at line 3 col 75\n\nent = 4096 : i64, operandSe",
    "krnl_getref_lowering-0.mlir: No terminal matches 'a' in the current parser context, at line 5 col 51\n\nmemref.alloc\"() <{operandSe",
    "elementwise-17.mlir: No terminal matches ',' in the current parser context, at line 2 col 52\n\nc\"() <{function_type = (ten",
    "log-1-0.mlir: No terminal matches ',' in the current parser context, at line 2 col 52\n\nc\"() <{function_type = (ten",
    "pool-4.mlir: No terminal matches ',' in the current parser context, at line 2 col 56\n\n <{function_type = (tensor<",
    "onnx_lowering_category_mapper-4.mlir: No terminal matches '.' in the current parser context, at line 2 col 76\n\ntensor<2x2x2xi64>) -> tenso",
    "buffer_copy-1.mlir: No terminal matches 'a' in the current parser context, at line 4 col 52\n\nemref.alloca\"() <{operandSe",
    "constprop-9.mlir: No terminal matches ',' in the current parser context, at line 2 col 59\n\nfunction_type = () -> tenso",
    "krnl_math_function_lowering-7.mlir: No terminal matches 'a' in the current parser context, at line 6 col 51\n\nmemref.alloc\"() <{operandSe",
    "fold-std-alloc-3.mlir: No terminal matches 'a' in the current parser context, at line 6 col 51\n\nmemref.alloc\"() <{operandSe",
    "buffer_copy-16.mlir: No terminal matches 'a' in the current parser context, at line 4 col 52\n\nemref.alloca\"() <{operandSe",
    "krnl_to_affine-4.mlir: No terminal matches 'a' in the current parser context, at line 7 col 51\n\nmemref.alloc\"() <{operandSe",
    "onnx_constprop-126.mlir: No terminal matches '>' in the current parser context, at line 3 col 43\n\n  %0 = \"onnx.Constant\"() {v",
    "fold-std-alloc-2.mlir: No terminal matches 'i' in the current parser context, at line 2 col 45\n\nunc.func\"() <{function_type",
    "lower-all-to-llvm-typed-pointer-1.mlir: No terminal matches 'a' in the current parser context, at line 3 col 51\n\nmemref.alloc\"() <{operandSe",
    "elementwise-5.mlir: No terminal matches ',' in the current parser context, at line 2 col 52\n\nc\"() <{function_type = (ten",
    "lstm-0.mlir: No terminal matches ',' in the current parser context, at line 2 col 52\n\nc\"() <{function_type = (ten",
    "div-1-0.mlir: No terminal matches ',' in the current parser context, at line 2 col 52\n\nc\"() <{function_type = (ten",
    "onnx-on-ztensor-1.mlir: No terminal matches ',' in the current parser context, at line 2 col 54\n\n() <{function_type = (tenso",
    "zlow-rewrite-1.mlir: No terminal matches 'f' in the current parser context, at line 1 col 38\n\n#map = affine_map<(d0, d1) ",
    "buffer_copy-10.mlir: No terminal matches 'a' in the current parser context, at line 4 col 52\n\nemref.alloca\"() <{operandSe",
    "buffer_copy-21.mlir: No terminal matches 'a' in the current parser context, at line 4 col 52\n\nemref.alloca\"() <{operandSe",
    "lstm-2-6.mlir: No terminal matches ',' in the current parser context, at line 2 col 52\n\nc\"() <{function_type = (ten",
    "constprop-11.mlir: No terminal matches ',' in the current parser context, at line 2 col 57\n\n<{function_type = () -> ten",
    "lower-all-to-llvm-11.mlir: No terminal matches 'a' in the current parser context, at line 3 col 51\n\nmemref.alloc\"() <{operandSe",
    "lstm-2-5.mlir: No terminal matches ',' in the current parser context, at line 2 col 52\n\nc\"() <{function_type = (ten",
    "krnl_C_library_function_lowering-2.mlir: No terminal matches 'a' in the current parser context, at line 4 col 73\n\nnment = 16 : i64, operandSe",
    "buffer_copy-2.mlir: No terminal matches 'a' in the current parser context, at line 4 col 52\n\nemref.alloca\"() <{operandSe",
    "krnl_sequence_lowering-4.mlir: No terminal matches 'm' in the current parser context, at line 2 col 45\n\nunc.func\"() <{function_type",
    "buffer_copy-7.mlir: No terminal matches 'a' in the current parser context, at line 4 col 52\n\nemref.alloca\"() <{operandSe",
    "zhigh-decompose-stick-unstick-0.mlir: No terminal matches ',' in the current parser context, at line 4 col 92\n\nnsor<1x3x5x?xf32>) -> tenso",
    "onnx-on-ztensor-3.mlir: No terminal matches ',' in the current parser context, at line 2 col 52\n\nc\"() <{function_type = (ten",
    "buffer_copy-5.mlir: No terminal matches 'a' in the current parser context, at line 4 col 52\n\nemref.alloca\"() <{operandSe",
    "elementwise-10.mlir: No terminal matches ',' in the current parser context, at line 2 col 52\n\nc\"() <{function_type = (ten",
    "module_op-2-0.mlir: No terminal matches '}' in the current parser context, at line 3 col 1\n\n}) : () -> ()\n^\nExpected one",
    "krnl_math_function_lowering-1.mlir: No terminal matches 'a' in the current parser context, at line 6 col 51\n\nmemref.alloc\"() <{operandSe",
    "lower-all-to-llvm-3.mlir: No terminal matches 'a' in the current parser context, at line 3 col 51\n\nmemref.alloc\"() <{operandSe",
    "zhigh-combine-14.mlir: No terminal matches ',' in the current parser context, at line 2 col 54\n\n() <{function_type = (tenso",
    "relu-1-1.mlir: No terminal matches ',' in the current parser context, at line 2 col 52\n\nc\"() <{function_type = (ten",
    "lower-all-to-llvm-typed-pointer-7.mlir: No terminal matches 'a' in the current parser context, at line 3 col 51\n\nmemref.alloc\"() <{operandSe",
    "buffer_copy-4.mlir: No terminal matches 'a' in the current parser context, at line 4 col 52\n\nemref.alloca\"() <{operandSe",
    "device_placement_pass-0.mlir: No terminal matches '_' in the current parser context, at line 6 col 42\n\n   %2 = \"onnx.Constant\"() {",
    "zhigh-layout-propagation-4.mlir: No terminal matches ',' in the current parser context, at line 2 col 58\n\n{function_type = (tensor<1x",
    "lower-all-to-llvm-typed-pointer-9.mlir: No terminal matches 'a' in the current parser context, at line 3 col 51\n\nmemref.alloc\"() <{operandSe",
    "lower-all-to-llvm-typed-pointer-26.mlir: No terminal matches 'a' in the current parser context, at line 3 col 75\n\nent = 4096 : i64, operandSe",
    "elementwise-0.mlir: No terminal matches ',' in the current parser context, at line 2 col 52\n\nc\"() <{function_type = (ten",
    "get_induction_var_value-1.mlir: No terminal matches 'a' in the current parser context, at line 14 col 53\n\nmemref.alloc\"() <{operandS",
    "krnl_memset-0.mlir: No terminal matches 'f' in the current parser context, at line 2 col 40\n\n#map1 = affine_map<(d0, d1)",
    "elementwise-4.mlir: No terminal matches ',' in the current parser context, at line 2 col 52\n\nc\"() <{function_type = (ten",
    "pool-8.mlir: No terminal matches ',' in the current parser context, at line 2 col 54\n\n() <{function_type = (tenso",
    "lower-all-to-llvm-typed-pointer-20.mlir: No terminal matches 'a' in the current parser context, at line 4 col 75\n\nent = 4096 : i64, operandSe",
    "LayoutTransform_with_canonicalize-0.mlir: No terminal matches '=' in the current parser context, at line 4 col 82\n\narget_layout = #onnx.layout",
    "constprop-13.mlir: No terminal matches ',' in the current parser context, at line 2 col 57\n\n<{function_type = () -> ten",
    "lower-all-to-llvm-15.mlir: No terminal matches 'a' in the current parser context, at line 3 col 51\n\nmemref.alloc\"() <{operandSe",
    "zlow-rewrite-4.mlir: No terminal matches 'f' in the current parser context, at line 1 col 38\n\n#map = affine_map<(d0, d1) ",
    "lstm-2-0.mlir: No terminal matches ',' in the current parser context, at line 2 col 52\n\nc\"() <{function_type = (ten",
    "onnx_shape_inference-240.mlir: No terminal matches '.' in the current parser context, at line 2 col 71\n\ne = (tensor<20x1xi64>) -> t",
    "lower-all-to-llvm-4.mlir: No terminal matches 'a' in the current parser context, at line 3 col 51\n\nmemref.alloc\"() <{operandSe",
    "sub-1-1.mlir: No terminal matches ',' in the current parser context, at line 2 col 52\n\nc\"() <{function_type = (ten",
    "zhigh-layout-propagation-2.mlir: No terminal matches ',' in the current parser context, at line 2 col 58\n\n{function_type = (tensor<1x",
    "relu-2-0.mlir: No terminal matches ',' in the current parser context, at line 4 col 85\n\n (tensor<10x10xf32>) -> ten",
    "pool-9.mlir: No terminal matches ',' in the current parser context, at line 2 col 56\n\n <{function_type = (tensor<",
    "lower-all-to-llvm-7.mlir: No terminal matches 'a' in the current parser context, at line 3 col 51\n\nmemref.alloc\"() <{operandSe",
    "lower-all-to-llvm-17.mlir: No terminal matches 'a' in the current parser context, at line 3 col 51\n\nmemref.alloc\"() <{operandSe",
    "pool-2-3.mlir: No terminal matches ',' in the current parser context, at line 2 col 54\n\n() <{function_type = (tenso",
    "elementwise-12.mlir: No terminal matches ',' in the current parser context, at line 2 col 52\n\nc\"() <{function_type = (ten",
    "zhigh-layout-propagation-7.mlir: No terminal matches ',' in the current parser context, at line 2 col 58\n\n{function_type = (tensor<1x",
    "zhigh-clip-to-dlfloat-range-3.mlir: No terminal matches ',' in the current parser context, at line 2 col 52\n\nc\"() <{function_type = (ten",
    "lower-all-to-llvm-22.mlir: No terminal matches 'a' in the current parser context, at line 3 col 75\n\nent = 4096 : i64, operandSe",
    "pool-7.mlir: No terminal matches ',' in the current parser context, at line 2 col 54\n\n() <{function_type = (tenso",
    "elementwise-13.mlir: No terminal matches ',' in the current parser context, at line 2 col 52\n\nc\"() <{function_type = (ten",
    "krnl_shape_lowering-1.mlir: No terminal matches 'f' in the current parser context, at line 1 col 35\n\n#map = affine_map<(d0, d1) ",
    "zlow-normalize-by-using-dummyop-0.mlir: No terminal matches 'f' in the current parser context, at line 1 col 42\n\nmap = affine_map<(d0, d1, d",
    "lower-all-to-llvm-typed-pointer-23.mlir: No terminal matches 'a' in the current parser context, at line 3 col 75\n\nent = 4096 : i64, operandSe",
    "model_tag-0.mlir: No terminal matches '}' in the current parser context, at line 3 col 1\n\n}) : () -> ()\n^\nExpected one",
    "max-1-1.mlir: No terminal matches ',' in the current parser context, at line 2 col 52\n\nc\"() <{function_type = (ten",
    "matmul-2-3.mlir: No terminal matches ',' in the current parser context, at line 2 col 50\n\nunc\"() <{function_type = (t",
    "buffer_copy-14.mlir: No terminal matches 'a' in the current parser context, at line 6 col 52\n\nemref.alloca\"() <{operandSe",
    "zlow-rewrite-11.mlir: No terminal matches 'f' in the current parser context, at line 1 col 47\n\n affine_map<(d0, d1, d2, d3",
    "meanreduce-1.mlir: No terminal matches ',' in the current parser context, at line 2 col 54\n\n() <{function_type = (tenso",
    "krnl_to_affine_with_canonicalize-0.mlir: No terminal matches 'a' in the current parser context, at line 4 col 52\n\nemref.alloca\"() <{operandSe",
    "krnl_category_mapper-4.mlir: No terminal matches '.' in the current parser context, at line 4 col 72\n\n = (memref<2x2xi64>) -> mem",
    "gru-2-0.mlir: No terminal matches ',' in the current parser context, at line 2 col 52\n\nc\"() <{function_type = (ten",
    "onnx_canonicalization-82.mlir: No terminal matches '=' in the current parser context, at line 4 col 82\n\narget_layout = #onnx.layout",
    "constprop-4.mlir: No terminal matches ',' in the current parser context, at line 2 col 57\n\n<{function_type = () -> ten",
    "matmul-3-1.mlir: No terminal matches 'a' in the current parser context, at line 19 col 131\n\n %0, %1, %3, %2) {operand",
    "krnl_disconnect_dim_from_alloc-0.mlir: No terminal matches 'a' in the current parser context, at line 7 col 53\n\nmref.alloc\"(%2) <{operandSe",
    "zlow-rewrite-9.mlir: No terminal matches 'f' in the current parser context, at line 1 col 38\n\n#map = affine_map<(d0, d1) ",
    "onnx_shape_inference-242.mlir: No terminal matches '.' in the current parser context, at line 2 col 73\n\n= (tensor<2x20x1xi64>) -> t",
    "gru-1.mlir: No terminal matches ',' in the current parser context, at line 2 col 52\n\nc\"() <{function_type = (ten",
    "constprop-5.mlir: No terminal matches ',' in the current parser context, at line 2 col 57\n\n<{function_type = () -> ten",
    "zhigh-combine-6.mlir: No terminal matches ',' in the current parser context, at line 2 col 60\n\nunction_type = (tensor<1x10",
    "fold-std-alloc-0.mlir: No terminal matches 'a' in the current parser context, at line 10 col 51\n\nmemref.alloc\"() <{operandS",
    "zhigh-clip-to-dlfloat-range-0.mlir: No terminal matches ',' in the current parser context, at line 4 col 89\n\n (tensor<3x4x5xf32>) -> ten",
    "constprop-3.mlir: No terminal matches ',' in the current parser context, at line 2 col 55\n\n) <{function_type = () -> t",
    "lower-all-to-llvm-18.mlir: No terminal matches 'a' in the current parser context, at line 4 col 75\n\nent = 4096 : i64, operandSe",
    "elementwise-1.mlir: No terminal matches ',' in the current parser context, at line 2 col 52\n\nc\"() <{function_type = (ten",
    "fold-std-alloc-4.mlir: No terminal matches 'a' in the current parser context, at line 7 col 51\n\nmemref.alloc\"() <{operandSe",
    "conv-4.mlir: No terminal matches ',' in the current parser context, at line 2 col 56\n\n <{function_type = (tensor<",
    "lower-all-to-llvm-27.mlir: No terminal matches 'a' in the current parser context, at line 3 col 75\n\nent = 4096 : i64, operandSe",
    "lower-all-to-llvm-25.mlir: No terminal matches 'a' in the current parser context, at line 3 col 75\n\nent = 4096 : i64, operandSe",
    "krnl_to_affine-0.mlir: No terminal matches 'f' in the current parser context, at line 2 col 43\n\n\"func.func\"() <{function_ty",
    "elementwise-2.mlir: No terminal matches ',' in the current parser context, at line 2 col 52\n\nc\"() <{function_type = (ten",
    "onnx_constprop-108.mlir: No terminal matches 'f' in the current parser context, at line 2 col 52\n\nc\"() <{function_type = () -",
    "onnx_canonicalization-81.mlir: No terminal matches ',' in the current parser context, at line 2 col 56\n\n <{function_type = (tensor<",
    "relu-1-0.mlir: No terminal matches ',' in the current parser context, at line 2 col 52\n\nc\"() <{function_type = (ten",
    "log-1-1.mlir: No terminal matches ',' in the current parser context, at line 2 col 52\n\nc\"() <{function_type = (ten",
    "zhigh-layout-propagation-8.mlir: No terminal matches ',' in the current parser context, at line 2 col 58\n\n{function_type = (tensor<1x",
    "lower-all-to-llvm-typed-pointer-3.mlir: No terminal matches 'a' in the current parser context, at line 3 col 51\n\nmemref.alloc\"() <{operandSe",
    "sigmoid-1-0.mlir: No terminal matches ',' in the current parser context, at line 2 col 52\n\nc\"() <{function_type = (ten",
    "buffer_copy-18.mlir: No terminal matches 'a' in the current parser context, at line 4 col 52\n\nemref.alloca\"() <{operandSe",
    "add-2-0.mlir: No terminal matches ',' in the current parser context, at line 5 col 85\n\n (tensor<10x10xf32>) -> ten",
    "zlow-rewrite-17.mlir: No terminal matches 'f' in the current parser context, at line 1 col 38\n\n#map = affine_map<(d0, d1) ",
    "zhigh-layout-propagation-3.mlir: No terminal matches ',' in the current parser context, at line 2 col 58\n\n{function_type = (tensor<1x",
    "zlow-rewrite-18.mlir: No terminal matches 'f' in the current parser context, at line 1 col 38\n\n#map = affine_map<(d0, d1) ",
    "onnx_shape_inference-186.mlir: No terminal matches '.' in the current parser context, at line 2 col 53\n\n\"() <{function_type = (tens",
    "sub-2-0.mlir: No terminal matches ',' in the current parser context, at line 5 col 85\n\n (tensor<10x10xf32>) -> ten",
    "pool-3.mlir: No terminal matches ',' in the current parser context, at line 2 col 54\n\n() <{function_type = (tenso",
    "exp-1-1.mlir: No terminal matches ',' in the current parser context, at line 2 col 52\n\nc\"() <{function_type = (ten",
    "krnl_random_normal_lowering-1.mlir: No terminal matches 'a' in the current parser context, at line 8 col 79\n\nnment = 16 : i64, operandSe",
    "matmul-5.mlir: No terminal matches ',' in the current parser context, at line 2 col 52\n\nc\"() <{function_type = (ten",
    "lower-all-to-llvm-typed-pointer-10.mlir: No terminal matches 'a' in the current parser context, at line 3 col 51\n\nmemref.alloc\"() <{operandSe",
    "sub-1-0.mlir: No terminal matches ',' in the current parser context, at line 2 col 52\n\nc\"() <{function_type = (ten",
    "matmul-2-1.mlir: No terminal matches ',' in the current parser context, at line 2 col 52\n\nc\"() <{function_type = (ten",
    "zlow-rewrite-16.mlir: No terminal matches 'f' in the current parser context, at line 1 col 39\n\n#map = affine_map<(d0, d1) ",
    "zhigh-layout-propagation-6.mlir: No terminal matches ',' in the current parser context, at line 2 col 58\n\n{function_type = (tensor<1x",
    "lower-all-to-llvm-24.mlir: No terminal matches 'a' in the current parser context, at line 3 col 75\n\nent = 4096 : i64, operandSe",
    "zlow-rewrite-2.mlir: No terminal matches 'f' in the current parser context, at line 1 col 38\n\n#map = affine_map<(d0, d1) ",
    "zhigh-layout-propagation-1.mlir: No terminal matches ',' in the current parser context, at line 2 col 58\n\n{function_type = (tensor<1x",
    "elementwise-11.mlir: No terminal matches ',' in the current parser context, at line 2 col 52\n\nc\"() <{function_type = (ten",
    "onnx_constprop-112.mlir: No terminal matches '>' in the current parser context, at line 11 col 43\n\n  %1 = \"onnx.Constant\"() {",
    "constprop-7.mlir: No terminal matches ',' in the current parser context, at line 2 col 59\n\nfunction_type = () -> tenso",
    "div-1-1.mlir: No terminal matches ',' in the current parser context, at line 2 col 52\n\nc\"() <{function_type = (ten",
    "lower-all-to-llvm-8.mlir: No terminal matches 'a' in the current parser context, at line 3 col 51\n\nmemref.alloc\"() <{operandSe",
    "tanh-1-1.mlir: No terminal matches ',' in the current parser context, at line 2 col 52\n\nc\"() <{function_type = (ten",
    "buffer_loop_hoisting-0.mlir: No terminal matches 'a' in the current parser context, at line 17 col 58\n\nemref.alloca\"() <{operandS",
    "buffer_copy-19.mlir: No terminal matches 'a' in the current parser context, at line 4 col 52\n\nemref.alloca\"() <{operandSe",
    "lstm-2-2.mlir: No terminal matches ',' in the current parser context, at line 2 col 52\n\nc\"() <{function_type = (ten",
    "lower-all-to-llvm-typed-pointer-4.mlir: No terminal matches 'a' in the current parser context, at line 3 col 51\n\nmemref.alloc\"() <{operandSe",
    "zhigh-combine-7.mlir: No terminal matches ',' in the current parser context, at line 2 col 60\n\nunction_type = (tensor<1x10",
    "zhigh-layout-propagation-5.mlir: No terminal matches ',' in the current parser context, at line 2 col 58\n\n{function_type = (tensor<1x",
    "exp-1-0.mlir: No terminal matches ',' in the current parser context, at line 2 col 52\n\nc\"() <{function_type = (ten",
    "module_op-3-0.mlir: No terminal matches '}' in the current parser context, at line 3 col 1\n\n}) : () -> ()\n^\nExpected one",
    "gru-2-2.mlir: No terminal matches ',' in the current parser context, at line 2 col 52\n\nc\"() <{function_type = (ten",
    "tanh-1-0.mlir: No terminal matches ',' in the current parser context, at line 2 col 52\n\nc\"() <{function_type = (ten",
    "krnl_substitution-1.mlir: No terminal matches 'a' in the current parser context, at line 17 col 53\n\nmemref.alloc\"() <{operandS",
    "lower-all-to-llvm-20.mlir: No terminal matches 'a' in the current parser context, at line 4 col 75\n\nent = 4096 : i64, operandSe",
    "pool-2-1.mlir: No terminal matches ',' in the current parser context, at line 2 col 56\n\n <{function_type = (tensor<",
    "zhigh-combine-13.mlir: No terminal matches ',' in the current parser context, at line 2 col 54\n\n() <{function_type = (tenso",
    "onnx_lowering_category_mapper-1.mlir: No terminal matches '.' in the current parser context, at line 2 col 52\n\nc\"() <{function_type = (ten",
    "krnl_to_affine-3.mlir: No terminal matches 'a' in the current parser context, at line 6 col 51\n\nmemref.alloc\"() <{operandSe",
    "gru-2-4.mlir: No terminal matches ',' in the current parser context, at line 2 col 52\n\nc\"() <{function_type = (ten",
    "lower-all-to-llvm-5.mlir: No terminal matches 'a' in the current parser context, at line 3 col 51\n\nmemref.alloc\"() <{operandSe",
    "krnl_getref_lowering-1.mlir: No terminal matches 'a' in the current parser context, at line 6 col 53\n\nmref.alloc\"(%1) <{operandSe",
    "lower-all-to-llvm-typed-pointer-19.mlir: No terminal matches 'a' in the current parser context, at line 4 col 75\n\nent = 4096 : i64, operandSe",
    "mul-2-0.mlir: No terminal matches ',' in the current parser context, at line 5 col 85\n\n (tensor<10x10xf32>) -> ten",
    "lower-all-to-llvm-typed-pointer-25.mlir: No terminal matches 'a' in the current parser context, at line 3 col 75\n\nent = 4096 : i64, operandSe",
    "krnl_math_function_lowering-6.mlir: No terminal matches 'a' in the current parser context, at line 6 col 51\n\nmemref.alloc\"() <{operandSe",
    "constprop-14.mlir: No terminal matches ',' in the current parser context, at line 2 col 53\n\n\"() <{function_type = () ->",
    "dyn-dim-analysis-0.mlir: No terminal matches ',' in the current parser context, at line 5 col 85\n\n (tensor<?x3x?xf32>) -> ten",
    "krnl_to_affine_with_canonicalize-2.mlir: No terminal matches 'f' in the current parser context, at line 1 col 31\n\n#map = affine_map<(d0) -> (",
    "gru-3.mlir: No terminal matches ',' in the current parser context, at line 2 col 52\n\nc\"() <{function_type = (ten",
    "lower-all-to-llvm-9.mlir: No terminal matches 'a' in the current parser context, at line 3 col 51\n\nmemref.alloc\"() <{operandSe",
    "lower-all-to-llvm-typed-pointer-2.mlir: No terminal matches 'a' in the current parser context, at line 3 col 51\n\nmemref.alloc\"() <{operandSe",
    "buffer_copy-13.mlir: No terminal matches 'a' in the current parser context, at line 4 col 52\n\nemref.alloca\"() <{operandSe",
    "lstm-3.mlir: No terminal matches ',' in the current parser context, at line 2 col 52\n\nc\"() <{function_type = (ten",
    "elementwise-7.mlir: No terminal matches ',' in the current parser context, at line 2 col 52\n\nc\"() <{function_type = (ten",
    "matmul-3-2.mlir: No terminal matches 'a' in the current parser context, at line 16 col 149\n\n6, %arg7, %arg8) {operand",
    "gru-0.mlir: No terminal matches ',' in the current parser context, at line 2 col 52\n\nc\"() <{function_type = (ten",
    "zhigh-combine-10.mlir: No terminal matches ',' in the current parser context, at line 2 col 55\n\n) <{function_type = (tensor",
    "krnl_to_llvm_omtensor_ownership-1.mlir: No terminal matches 'a' in the current parser context, at line 4 col 64\n\nrpret_cast\"(%0) <{operandSe",
    "lower-all-to-llvm-typed-pointer-6.mlir: No terminal matches 'a' in the current parser context, at line 3 col 51\n\nmemref.alloc\"() <{operandSe",
    "elementwise-9.mlir: No terminal matches ',' in the current parser context, at line 2 col 52\n\nc\"() <{function_type = (ten",
    "gru-2-3.mlir: No terminal matches ',' in the current parser context, at line 2 col 52\n\nc\"() <{function_type = (ten",
    "elementwise-14.mlir: No terminal matches ',' in the current parser context, at line 2 col 52\n\nc\"() <{function_type = (ten",
    "zlow-rewrite-14.mlir: No terminal matches 'f' in the current parser context, at line 1 col 47\n\n affine_map<(d0, d1, d2, d3"
  ],
  "statistics": {
    "top_dialects": [
      [
        "onnx",
        3634
      ],
      [
        "func",
        2555
      ],
      [
        "krnl",
        129
      ],
      [
        "zhigh",
        26
      ],
      [
        "arith",
        17
      ],
      [
        "memref",
        1
      ]
    ],
    "top_operations": [
      [
        "func.func",
        1600
      ],
      [
        "func.return",
        955
      ],
      [
        "onnx.Constant",
        713
      ],
      [
        "onnx.Return",
        645
      ],
      [
        "onnx.NoValue",
        240
      ],
      [
        "onnx.Add",
        189
      ],
      [
        "onnx.MatMul",
        92
      ],
      [
        "onnx.Conv",
        67
      ],
      [
        "onnx.Mul",
        59
      ],
      [
        "onnx.Concat",
        58
      ],
      [
        "onnx.Relu",
        51
      ],
      [
        "onnx.Dim",
        49
      ],
      [
        "onnx.Gemm",
        46
      ],
      [
        "onnx.Reshape",
        46
      ],
      [
        "onnx.MaxPoolSingleOut",
        46
      ],
      [
        "onnx.Transpose",
        44
      ],
      [
        "onnx.Cast",
        40
      ],
      [
        "onnx.ReduceMeanV13",
        40
      ],
      [
        "onnx.AveragePool",
        38
      ],
      [
        "onnx.LSTM",
        36
      ]
    ],
    "top_types": [
      [
        "*xf32",
        185
      ],
      [
        "10x10xf32",
        130
      ],
      [
        "f32",
        73
      ],
      [
        "?x10xf32",
        66
      ],
      [
        "1xf32",
        60
      ],
      [
        "?x10xf32*xf32",
        48
      ],
      [
        "?x?x?xf32",
        46
      ],
      [
        "2xf32",
        44
      ],
      [
        "3xf32",
        42
      ],
      [
        "3x4x5xf32",
        38
      ],
      [
        "i32",
        37
      ],
      [
        "i64",
        34
      ],
      [
        "index",
        32
      ],
      [
        "5x5x32x32xf32",
        31
      ],
      [
        "i8",
        30
      ]
    ],
    "avg_ops_per_file": 4.00125786163522,
    "avg_region_depth": 2.0245283018867926,
    "complexity_distribution": {
      "medium": 1563,
      "complex": 27
    }
  }
}